<?xml version="1.0"?>
<net name="torch_jit" version="11">
	<layers>
		<layer id="0" name="image" type="Parameter" version="opset1">
			<data shape="?,3,864,864" element_type="f32" />
			<output>
				<port id="0" precision="FP32" names="image">
					<dim>-1</dim>
					<dim>3</dim>
					<dim>864</dim>
					<dim>864</dim>
				</port>
			</output>
		</layer>
		<layer id="1" name="/Constant_24" type="Const" version="opset1">
			<data element_type="f32" shape="1, 4, 4" offset="0" size="64" />
			<output>
				<port id="0" precision="FP32" names="/Constant_24_output_0">
					<dim>1</dim>
					<dim>4</dim>
					<dim>4</dim>
				</port>
			</output>
		</layer>
		<layer id="2" name="/Constant_11" type="Const" version="opset1">
			<data element_type="i64" shape="" offset="64" size="8" />
			<output>
				<port id="0" precision="I64" names="/Constant_11_output_0" />
			</output>
		</layer>
		<layer id="3" name="Constant_22296" type="Const" version="opset1">
			<data element_type="f32" shape="1, 3, 1, 1" offset="72" size="12" />
			<rt_info>
				<attribute name="preprocessing" version="0" />
			</rt_info>
			<output>
				<port id="0" precision="FP32">
					<dim>1</dim>
					<dim>3</dim>
					<dim>1</dim>
					<dim>1</dim>
				</port>
			</output>
		</layer>
		<layer id="4" name="Multiply_22298" type="Multiply" version="opset1">
			<data auto_broadcast="numpy" />
			<input>
				<port id="0" precision="FP32">
					<dim>-1</dim>
					<dim>3</dim>
					<dim>864</dim>
					<dim>864</dim>
				</port>
				<port id="1" precision="FP32">
					<dim>1</dim>
					<dim>3</dim>
					<dim>1</dim>
					<dim>1</dim>
				</port>
			</input>
			<output>
				<port id="2" precision="FP32">
					<dim>-1</dim>
					<dim>3</dim>
					<dim>864</dim>
					<dim>864</dim>
				</port>
			</output>
		</layer>
		<layer id="5" name="Constant_22300" type="Const" version="opset1">
			<data element_type="f32" shape="1, 3, 1, 1" offset="84" size="12" />
			<output>
				<port id="0" precision="FP32">
					<dim>1</dim>
					<dim>3</dim>
					<dim>1</dim>
					<dim>1</dim>
				</port>
			</output>
		</layer>
		<layer id="6" name="Divide_10534" type="Add" version="opset1">
			<data auto_broadcast="numpy" />
			<input>
				<port id="0" precision="FP32">
					<dim>-1</dim>
					<dim>3</dim>
					<dim>864</dim>
					<dim>864</dim>
				</port>
				<port id="1" precision="FP32">
					<dim>1</dim>
					<dim>3</dim>
					<dim>1</dim>
					<dim>1</dim>
				</port>
			</input>
			<output>
				<port id="2" precision="FP32">
					<dim>-1</dim>
					<dim>3</dim>
					<dim>864</dim>
					<dim>864</dim>
				</port>
			</output>
		</layer>
		<layer id="7" name="onnx::Conv_1048" type="Const" version="opset1">
			<data element_type="f32" shape="32, 3, 3, 3" offset="96" size="3456" />
			<output>
				<port id="0" precision="FP32" names="onnx::Conv_1048">
					<dim>32</dim>
					<dim>3</dim>
					<dim>3</dim>
					<dim>3</dim>
				</port>
			</output>
		</layer>
		<layer id="8" name="/backbone/init_block/conv/Conv/WithoutBiases" type="Convolution" version="opset1">
			<data strides="2, 2" dilations="1, 1" pads_begin="1, 1" pads_end="1, 1" auto_pad="explicit" />
			<input>
				<port id="0" precision="FP32">
					<dim>-1</dim>
					<dim>3</dim>
					<dim>864</dim>
					<dim>864</dim>
				</port>
				<port id="1" precision="FP32">
					<dim>32</dim>
					<dim>3</dim>
					<dim>3</dim>
					<dim>3</dim>
				</port>
			</input>
			<output>
				<port id="2" precision="FP32">
					<dim>-1</dim>
					<dim>32</dim>
					<dim>432</dim>
					<dim>432</dim>
				</port>
			</output>
		</layer>
		<layer id="9" name="Reshape_142" type="Const" version="opset1">
			<data element_type="f32" shape="1, 32, 1, 1" offset="3552" size="128" />
			<output>
				<port id="0" precision="FP32">
					<dim>1</dim>
					<dim>32</dim>
					<dim>1</dim>
					<dim>1</dim>
				</port>
			</output>
		</layer>
		<layer id="10" name="/backbone/init_block/conv/Conv" type="Add" version="opset1">
			<data auto_broadcast="numpy" />
			<input>
				<port id="0" precision="FP32">
					<dim>-1</dim>
					<dim>32</dim>
					<dim>432</dim>
					<dim>432</dim>
				</port>
				<port id="1" precision="FP32">
					<dim>1</dim>
					<dim>32</dim>
					<dim>1</dim>
					<dim>1</dim>
				</port>
			</input>
			<output>
				<port id="2" precision="FP32" names="/backbone/init_block/conv/Conv_output_0">
					<dim>-1</dim>
					<dim>32</dim>
					<dim>432</dim>
					<dim>432</dim>
				</port>
			</output>
		</layer>
		<layer id="11" name="/backbone/init_block/activ/Clip" type="Clamp" version="opset1">
			<data min="0" max="6" />
			<input>
				<port id="0" precision="FP32">
					<dim>-1</dim>
					<dim>32</dim>
					<dim>432</dim>
					<dim>432</dim>
				</port>
			</input>
			<output>
				<port id="1" precision="FP32" names="/backbone/init_block/activ/Clip_output_0">
					<dim>-1</dim>
					<dim>32</dim>
					<dim>432</dim>
					<dim>432</dim>
				</port>
			</output>
		</layer>
		<layer id="12" name="onnx::Conv_1051" type="Const" version="opset1">
			<data element_type="f32" shape="32, 32, 1, 1" offset="3680" size="4096" />
			<output>
				<port id="0" precision="FP32" names="onnx::Conv_1051">
					<dim>32</dim>
					<dim>32</dim>
					<dim>1</dim>
					<dim>1</dim>
				</port>
			</output>
		</layer>
		<layer id="13" name="/backbone/stage1/unit1/conv1/conv/Conv/WithoutBiases" type="Convolution" version="opset1">
			<data strides="1, 1" dilations="1, 1" pads_begin="0, 0" pads_end="0, 0" auto_pad="explicit" />
			<input>
				<port id="0" precision="FP32">
					<dim>-1</dim>
					<dim>32</dim>
					<dim>432</dim>
					<dim>432</dim>
				</port>
				<port id="1" precision="FP32">
					<dim>32</dim>
					<dim>32</dim>
					<dim>1</dim>
					<dim>1</dim>
				</port>
			</input>
			<output>
				<port id="2" precision="FP32">
					<dim>-1</dim>
					<dim>32</dim>
					<dim>432</dim>
					<dim>432</dim>
				</port>
			</output>
		</layer>
		<layer id="14" name="Reshape_161" type="Const" version="opset1">
			<data element_type="f32" shape="1, 32, 1, 1" offset="7776" size="128" />
			<output>
				<port id="0" precision="FP32">
					<dim>1</dim>
					<dim>32</dim>
					<dim>1</dim>
					<dim>1</dim>
				</port>
			</output>
		</layer>
		<layer id="15" name="/backbone/stage1/unit1/conv1/conv/Conv" type="Add" version="opset1">
			<data auto_broadcast="numpy" />
			<input>
				<port id="0" precision="FP32">
					<dim>-1</dim>
					<dim>32</dim>
					<dim>432</dim>
					<dim>432</dim>
				</port>
				<port id="1" precision="FP32">
					<dim>1</dim>
					<dim>32</dim>
					<dim>1</dim>
					<dim>1</dim>
				</port>
			</input>
			<output>
				<port id="2" precision="FP32" names="/backbone/stage1/unit1/conv1/conv/Conv_output_0">
					<dim>-1</dim>
					<dim>32</dim>
					<dim>432</dim>
					<dim>432</dim>
				</port>
			</output>
		</layer>
		<layer id="16" name="/backbone/stage1/unit1/conv1/activ/Clip" type="Clamp" version="opset1">
			<data min="0" max="6" />
			<input>
				<port id="0" precision="FP32">
					<dim>-1</dim>
					<dim>32</dim>
					<dim>432</dim>
					<dim>432</dim>
				</port>
			</input>
			<output>
				<port id="1" precision="FP32" names="/backbone/stage1/unit1/conv1/activ/Clip_output_0">
					<dim>-1</dim>
					<dim>32</dim>
					<dim>432</dim>
					<dim>432</dim>
				</port>
			</output>
		</layer>
		<layer id="17" name="Reshape_176" type="Const" version="opset1">
			<data element_type="f32" shape="32, 1, 1, 3, 3" offset="7904" size="1152" />
			<output>
				<port id="0" precision="FP32">
					<dim>32</dim>
					<dim>1</dim>
					<dim>1</dim>
					<dim>3</dim>
					<dim>3</dim>
				</port>
			</output>
		</layer>
		<layer id="18" name="/backbone/stage1/unit1/conv2/conv/Conv/WithoutBiases" type="GroupConvolution" version="opset1">
			<data strides="1, 1" pads_begin="1, 1" pads_end="1, 1" dilations="1, 1" auto_pad="explicit" />
			<input>
				<port id="0" precision="FP32">
					<dim>-1</dim>
					<dim>32</dim>
					<dim>432</dim>
					<dim>432</dim>
				</port>
				<port id="1" precision="FP32">
					<dim>32</dim>
					<dim>1</dim>
					<dim>1</dim>
					<dim>3</dim>
					<dim>3</dim>
				</port>
			</input>
			<output>
				<port id="2" precision="FP32">
					<dim>-1</dim>
					<dim>32</dim>
					<dim>432</dim>
					<dim>432</dim>
				</port>
			</output>
		</layer>
		<layer id="19" name="Reshape_228" type="Const" version="opset1">
			<data element_type="f32" shape="1, 32, 1, 1" offset="9056" size="128" />
			<output>
				<port id="0" precision="FP32">
					<dim>1</dim>
					<dim>32</dim>
					<dim>1</dim>
					<dim>1</dim>
				</port>
			</output>
		</layer>
		<layer id="20" name="/backbone/stage1/unit1/conv2/conv/Conv" type="Add" version="opset1">
			<data auto_broadcast="numpy" />
			<input>
				<port id="0" precision="FP32">
					<dim>-1</dim>
					<dim>32</dim>
					<dim>432</dim>
					<dim>432</dim>
				</port>
				<port id="1" precision="FP32">
					<dim>1</dim>
					<dim>32</dim>
					<dim>1</dim>
					<dim>1</dim>
				</port>
			</input>
			<output>
				<port id="2" precision="FP32" names="/backbone/stage1/unit1/conv2/conv/Conv_output_0">
					<dim>-1</dim>
					<dim>32</dim>
					<dim>432</dim>
					<dim>432</dim>
				</port>
			</output>
		</layer>
		<layer id="21" name="/backbone/stage1/unit1/conv2/activ/Clip" type="Clamp" version="opset1">
			<data min="0" max="6" />
			<input>
				<port id="0" precision="FP32">
					<dim>-1</dim>
					<dim>32</dim>
					<dim>432</dim>
					<dim>432</dim>
				</port>
			</input>
			<output>
				<port id="1" precision="FP32" names="/backbone/stage1/unit1/conv2/activ/Clip_output_0">
					<dim>-1</dim>
					<dim>32</dim>
					<dim>432</dim>
					<dim>432</dim>
				</port>
			</output>
		</layer>
		<layer id="22" name="onnx::Conv_1057" type="Const" version="opset1">
			<data element_type="f32" shape="16, 32, 1, 1" offset="9184" size="2048" />
			<output>
				<port id="0" precision="FP32" names="onnx::Conv_1057">
					<dim>16</dim>
					<dim>32</dim>
					<dim>1</dim>
					<dim>1</dim>
				</port>
			</output>
		</layer>
		<layer id="23" name="/backbone/stage1/unit1/conv3/conv/Conv/WithoutBiases" type="Convolution" version="opset1">
			<data strides="1, 1" dilations="1, 1" pads_begin="0, 0" pads_end="0, 0" auto_pad="explicit" />
			<input>
				<port id="0" precision="FP32">
					<dim>-1</dim>
					<dim>32</dim>
					<dim>432</dim>
					<dim>432</dim>
				</port>
				<port id="1" precision="FP32">
					<dim>16</dim>
					<dim>32</dim>
					<dim>1</dim>
					<dim>1</dim>
				</port>
			</input>
			<output>
				<port id="2" precision="FP32">
					<dim>-1</dim>
					<dim>16</dim>
					<dim>432</dim>
					<dim>432</dim>
				</port>
			</output>
		</layer>
		<layer id="24" name="Reshape_247" type="Const" version="opset1">
			<data element_type="f32" shape="1, 16, 1, 1" offset="11232" size="64" />
			<output>
				<port id="0" precision="FP32">
					<dim>1</dim>
					<dim>16</dim>
					<dim>1</dim>
					<dim>1</dim>
				</port>
			</output>
		</layer>
		<layer id="25" name="/backbone/stage1/unit1/conv3/conv/Conv" type="Add" version="opset1">
			<data auto_broadcast="numpy" />
			<input>
				<port id="0" precision="FP32">
					<dim>-1</dim>
					<dim>16</dim>
					<dim>432</dim>
					<dim>432</dim>
				</port>
				<port id="1" precision="FP32">
					<dim>1</dim>
					<dim>16</dim>
					<dim>1</dim>
					<dim>1</dim>
				</port>
			</input>
			<output>
				<port id="2" precision="FP32" names="/backbone/stage1/unit1/conv3/conv/Conv_output_0">
					<dim>-1</dim>
					<dim>16</dim>
					<dim>432</dim>
					<dim>432</dim>
				</port>
			</output>
		</layer>
		<layer id="26" name="onnx::Conv_1060" type="Const" version="opset1">
			<data element_type="f32" shape="96, 16, 1, 1" offset="11296" size="6144" />
			<output>
				<port id="0" precision="FP32" names="onnx::Conv_1060">
					<dim>96</dim>
					<dim>16</dim>
					<dim>1</dim>
					<dim>1</dim>
				</port>
			</output>
		</layer>
		<layer id="27" name="/backbone/stage2/unit1/conv1/conv/Conv/WithoutBiases" type="Convolution" version="opset1">
			<data strides="1, 1" dilations="1, 1" pads_begin="0, 0" pads_end="0, 0" auto_pad="explicit" />
			<input>
				<port id="0" precision="FP32">
					<dim>-1</dim>
					<dim>16</dim>
					<dim>432</dim>
					<dim>432</dim>
				</port>
				<port id="1" precision="FP32">
					<dim>96</dim>
					<dim>16</dim>
					<dim>1</dim>
					<dim>1</dim>
				</port>
			</input>
			<output>
				<port id="2" precision="FP32">
					<dim>-1</dim>
					<dim>96</dim>
					<dim>432</dim>
					<dim>432</dim>
				</port>
			</output>
		</layer>
		<layer id="28" name="Reshape_262" type="Const" version="opset1">
			<data element_type="f32" shape="1, 96, 1, 1" offset="17440" size="384" />
			<output>
				<port id="0" precision="FP32">
					<dim>1</dim>
					<dim>96</dim>
					<dim>1</dim>
					<dim>1</dim>
				</port>
			</output>
		</layer>
		<layer id="29" name="/backbone/stage2/unit1/conv1/conv/Conv" type="Add" version="opset1">
			<data auto_broadcast="numpy" />
			<input>
				<port id="0" precision="FP32">
					<dim>-1</dim>
					<dim>96</dim>
					<dim>432</dim>
					<dim>432</dim>
				</port>
				<port id="1" precision="FP32">
					<dim>1</dim>
					<dim>96</dim>
					<dim>1</dim>
					<dim>1</dim>
				</port>
			</input>
			<output>
				<port id="2" precision="FP32" names="/backbone/stage2/unit1/conv1/conv/Conv_output_0">
					<dim>-1</dim>
					<dim>96</dim>
					<dim>432</dim>
					<dim>432</dim>
				</port>
			</output>
		</layer>
		<layer id="30" name="/backbone/stage2/unit1/conv1/activ/Clip" type="Clamp" version="opset1">
			<data min="0" max="6" />
			<input>
				<port id="0" precision="FP32">
					<dim>-1</dim>
					<dim>96</dim>
					<dim>432</dim>
					<dim>432</dim>
				</port>
			</input>
			<output>
				<port id="1" precision="FP32" names="/backbone/stage2/unit1/conv1/activ/Clip_output_0">
					<dim>-1</dim>
					<dim>96</dim>
					<dim>432</dim>
					<dim>432</dim>
				</port>
			</output>
		</layer>
		<layer id="31" name="Reshape_277" type="Const" version="opset1">
			<data element_type="f32" shape="96, 1, 1, 3, 3" offset="17824" size="3456" />
			<output>
				<port id="0" precision="FP32">
					<dim>96</dim>
					<dim>1</dim>
					<dim>1</dim>
					<dim>3</dim>
					<dim>3</dim>
				</port>
			</output>
		</layer>
		<layer id="32" name="/backbone/stage2/unit1/conv2/conv/Conv/WithoutBiases" type="GroupConvolution" version="opset1">
			<data strides="2, 2" pads_begin="1, 1" pads_end="1, 1" dilations="1, 1" auto_pad="explicit" />
			<input>
				<port id="0" precision="FP32">
					<dim>-1</dim>
					<dim>96</dim>
					<dim>432</dim>
					<dim>432</dim>
				</port>
				<port id="1" precision="FP32">
					<dim>96</dim>
					<dim>1</dim>
					<dim>1</dim>
					<dim>3</dim>
					<dim>3</dim>
				</port>
			</input>
			<output>
				<port id="2" precision="FP32">
					<dim>-1</dim>
					<dim>96</dim>
					<dim>216</dim>
					<dim>216</dim>
				</port>
			</output>
		</layer>
		<layer id="33" name="Reshape_329" type="Const" version="opset1">
			<data element_type="f32" shape="1, 96, 1, 1" offset="21280" size="384" />
			<output>
				<port id="0" precision="FP32">
					<dim>1</dim>
					<dim>96</dim>
					<dim>1</dim>
					<dim>1</dim>
				</port>
			</output>
		</layer>
		<layer id="34" name="/backbone/stage2/unit1/conv2/conv/Conv" type="Add" version="opset1">
			<data auto_broadcast="numpy" />
			<input>
				<port id="0" precision="FP32">
					<dim>-1</dim>
					<dim>96</dim>
					<dim>216</dim>
					<dim>216</dim>
				</port>
				<port id="1" precision="FP32">
					<dim>1</dim>
					<dim>96</dim>
					<dim>1</dim>
					<dim>1</dim>
				</port>
			</input>
			<output>
				<port id="2" precision="FP32" names="/backbone/stage2/unit1/conv2/conv/Conv_output_0">
					<dim>-1</dim>
					<dim>96</dim>
					<dim>216</dim>
					<dim>216</dim>
				</port>
			</output>
		</layer>
		<layer id="35" name="/backbone/stage2/unit1/conv2/activ/Clip" type="Clamp" version="opset1">
			<data min="0" max="6" />
			<input>
				<port id="0" precision="FP32">
					<dim>-1</dim>
					<dim>96</dim>
					<dim>216</dim>
					<dim>216</dim>
				</port>
			</input>
			<output>
				<port id="1" precision="FP32" names="/backbone/stage2/unit1/conv2/activ/Clip_output_0">
					<dim>-1</dim>
					<dim>96</dim>
					<dim>216</dim>
					<dim>216</dim>
				</port>
			</output>
		</layer>
		<layer id="36" name="onnx::Conv_1066" type="Const" version="opset1">
			<data element_type="f32" shape="24, 96, 1, 1" offset="21664" size="9216" />
			<output>
				<port id="0" precision="FP32" names="onnx::Conv_1066">
					<dim>24</dim>
					<dim>96</dim>
					<dim>1</dim>
					<dim>1</dim>
				</port>
			</output>
		</layer>
		<layer id="37" name="/backbone/stage2/unit1/conv3/conv/Conv/WithoutBiases" type="Convolution" version="opset1">
			<data strides="1, 1" dilations="1, 1" pads_begin="0, 0" pads_end="0, 0" auto_pad="explicit" />
			<input>
				<port id="0" precision="FP32">
					<dim>-1</dim>
					<dim>96</dim>
					<dim>216</dim>
					<dim>216</dim>
				</port>
				<port id="1" precision="FP32">
					<dim>24</dim>
					<dim>96</dim>
					<dim>1</dim>
					<dim>1</dim>
				</port>
			</input>
			<output>
				<port id="2" precision="FP32">
					<dim>-1</dim>
					<dim>24</dim>
					<dim>216</dim>
					<dim>216</dim>
				</port>
			</output>
		</layer>
		<layer id="38" name="Reshape_348" type="Const" version="opset1">
			<data element_type="f32" shape="1, 24, 1, 1" offset="30880" size="96" />
			<output>
				<port id="0" precision="FP32">
					<dim>1</dim>
					<dim>24</dim>
					<dim>1</dim>
					<dim>1</dim>
				</port>
			</output>
		</layer>
		<layer id="39" name="/backbone/stage2/unit1/conv3/conv/Conv" type="Add" version="opset1">
			<data auto_broadcast="numpy" />
			<input>
				<port id="0" precision="FP32">
					<dim>-1</dim>
					<dim>24</dim>
					<dim>216</dim>
					<dim>216</dim>
				</port>
				<port id="1" precision="FP32">
					<dim>1</dim>
					<dim>24</dim>
					<dim>1</dim>
					<dim>1</dim>
				</port>
			</input>
			<output>
				<port id="2" precision="FP32" names="/backbone/stage2/unit1/conv3/conv/Conv_output_0">
					<dim>-1</dim>
					<dim>24</dim>
					<dim>216</dim>
					<dim>216</dim>
				</port>
			</output>
		</layer>
		<layer id="40" name="onnx::Conv_1069" type="Const" version="opset1">
			<data element_type="f32" shape="144, 24, 1, 1" offset="30976" size="13824" />
			<output>
				<port id="0" precision="FP32" names="onnx::Conv_1069">
					<dim>144</dim>
					<dim>24</dim>
					<dim>1</dim>
					<dim>1</dim>
				</port>
			</output>
		</layer>
		<layer id="41" name="/backbone/stage2/unit2/conv1/conv/Conv/WithoutBiases" type="Convolution" version="opset1">
			<data strides="1, 1" dilations="1, 1" pads_begin="0, 0" pads_end="0, 0" auto_pad="explicit" />
			<input>
				<port id="0" precision="FP32">
					<dim>-1</dim>
					<dim>24</dim>
					<dim>216</dim>
					<dim>216</dim>
				</port>
				<port id="1" precision="FP32">
					<dim>144</dim>
					<dim>24</dim>
					<dim>1</dim>
					<dim>1</dim>
				</port>
			</input>
			<output>
				<port id="2" precision="FP32">
					<dim>-1</dim>
					<dim>144</dim>
					<dim>216</dim>
					<dim>216</dim>
				</port>
			</output>
		</layer>
		<layer id="42" name="Reshape_363" type="Const" version="opset1">
			<data element_type="f32" shape="1, 144, 1, 1" offset="44800" size="576" />
			<output>
				<port id="0" precision="FP32">
					<dim>1</dim>
					<dim>144</dim>
					<dim>1</dim>
					<dim>1</dim>
				</port>
			</output>
		</layer>
		<layer id="43" name="/backbone/stage2/unit2/conv1/conv/Conv" type="Add" version="opset1">
			<data auto_broadcast="numpy" />
			<input>
				<port id="0" precision="FP32">
					<dim>-1</dim>
					<dim>144</dim>
					<dim>216</dim>
					<dim>216</dim>
				</port>
				<port id="1" precision="FP32">
					<dim>1</dim>
					<dim>144</dim>
					<dim>1</dim>
					<dim>1</dim>
				</port>
			</input>
			<output>
				<port id="2" precision="FP32" names="/backbone/stage2/unit2/conv1/conv/Conv_output_0">
					<dim>-1</dim>
					<dim>144</dim>
					<dim>216</dim>
					<dim>216</dim>
				</port>
			</output>
		</layer>
		<layer id="44" name="/backbone/stage2/unit2/conv1/activ/Clip" type="Clamp" version="opset1">
			<data min="0" max="6" />
			<input>
				<port id="0" precision="FP32">
					<dim>-1</dim>
					<dim>144</dim>
					<dim>216</dim>
					<dim>216</dim>
				</port>
			</input>
			<output>
				<port id="1" precision="FP32" names="/backbone/stage2/unit2/conv1/activ/Clip_output_0">
					<dim>-1</dim>
					<dim>144</dim>
					<dim>216</dim>
					<dim>216</dim>
				</port>
			</output>
		</layer>
		<layer id="45" name="Reshape_378" type="Const" version="opset1">
			<data element_type="f32" shape="144, 1, 1, 3, 3" offset="45376" size="5184" />
			<output>
				<port id="0" precision="FP32">
					<dim>144</dim>
					<dim>1</dim>
					<dim>1</dim>
					<dim>3</dim>
					<dim>3</dim>
				</port>
			</output>
		</layer>
		<layer id="46" name="/backbone/stage2/unit2/conv2/conv/Conv/WithoutBiases" type="GroupConvolution" version="opset1">
			<data strides="1, 1" pads_begin="1, 1" pads_end="1, 1" dilations="1, 1" auto_pad="explicit" />
			<input>
				<port id="0" precision="FP32">
					<dim>-1</dim>
					<dim>144</dim>
					<dim>216</dim>
					<dim>216</dim>
				</port>
				<port id="1" precision="FP32">
					<dim>144</dim>
					<dim>1</dim>
					<dim>1</dim>
					<dim>3</dim>
					<dim>3</dim>
				</port>
			</input>
			<output>
				<port id="2" precision="FP32">
					<dim>-1</dim>
					<dim>144</dim>
					<dim>216</dim>
					<dim>216</dim>
				</port>
			</output>
		</layer>
		<layer id="47" name="Reshape_430" type="Const" version="opset1">
			<data element_type="f32" shape="1, 144, 1, 1" offset="50560" size="576" />
			<output>
				<port id="0" precision="FP32">
					<dim>1</dim>
					<dim>144</dim>
					<dim>1</dim>
					<dim>1</dim>
				</port>
			</output>
		</layer>
		<layer id="48" name="/backbone/stage2/unit2/conv2/conv/Conv" type="Add" version="opset1">
			<data auto_broadcast="numpy" />
			<input>
				<port id="0" precision="FP32">
					<dim>-1</dim>
					<dim>144</dim>
					<dim>216</dim>
					<dim>216</dim>
				</port>
				<port id="1" precision="FP32">
					<dim>1</dim>
					<dim>144</dim>
					<dim>1</dim>
					<dim>1</dim>
				</port>
			</input>
			<output>
				<port id="2" precision="FP32" names="/backbone/stage2/unit2/conv2/conv/Conv_output_0">
					<dim>-1</dim>
					<dim>144</dim>
					<dim>216</dim>
					<dim>216</dim>
				</port>
			</output>
		</layer>
		<layer id="49" name="/backbone/stage2/unit2/conv2/activ/Clip" type="Clamp" version="opset1">
			<data min="0" max="6" />
			<input>
				<port id="0" precision="FP32">
					<dim>-1</dim>
					<dim>144</dim>
					<dim>216</dim>
					<dim>216</dim>
				</port>
			</input>
			<output>
				<port id="1" precision="FP32" names="/backbone/stage2/unit2/conv2/activ/Clip_output_0">
					<dim>-1</dim>
					<dim>144</dim>
					<dim>216</dim>
					<dim>216</dim>
				</port>
			</output>
		</layer>
		<layer id="50" name="onnx::Conv_1075" type="Const" version="opset1">
			<data element_type="f32" shape="24, 144, 1, 1" offset="51136" size="13824" />
			<output>
				<port id="0" precision="FP32" names="onnx::Conv_1075">
					<dim>24</dim>
					<dim>144</dim>
					<dim>1</dim>
					<dim>1</dim>
				</port>
			</output>
		</layer>
		<layer id="51" name="/backbone/stage2/unit2/conv3/conv/Conv/WithoutBiases" type="Convolution" version="opset1">
			<data strides="1, 1" dilations="1, 1" pads_begin="0, 0" pads_end="0, 0" auto_pad="explicit" />
			<input>
				<port id="0" precision="FP32">
					<dim>-1</dim>
					<dim>144</dim>
					<dim>216</dim>
					<dim>216</dim>
				</port>
				<port id="1" precision="FP32">
					<dim>24</dim>
					<dim>144</dim>
					<dim>1</dim>
					<dim>1</dim>
				</port>
			</input>
			<output>
				<port id="2" precision="FP32">
					<dim>-1</dim>
					<dim>24</dim>
					<dim>216</dim>
					<dim>216</dim>
				</port>
			</output>
		</layer>
		<layer id="52" name="Reshape_449" type="Const" version="opset1">
			<data element_type="f32" shape="1, 24, 1, 1" offset="64960" size="96" />
			<output>
				<port id="0" precision="FP32">
					<dim>1</dim>
					<dim>24</dim>
					<dim>1</dim>
					<dim>1</dim>
				</port>
			</output>
		</layer>
		<layer id="53" name="/backbone/stage2/unit2/conv3/conv/Conv" type="Add" version="opset1">
			<data auto_broadcast="numpy" />
			<input>
				<port id="0" precision="FP32">
					<dim>-1</dim>
					<dim>24</dim>
					<dim>216</dim>
					<dim>216</dim>
				</port>
				<port id="1" precision="FP32">
					<dim>1</dim>
					<dim>24</dim>
					<dim>1</dim>
					<dim>1</dim>
				</port>
			</input>
			<output>
				<port id="2" precision="FP32" names="/backbone/stage2/unit2/conv3/conv/Conv_output_0">
					<dim>-1</dim>
					<dim>24</dim>
					<dim>216</dim>
					<dim>216</dim>
				</port>
			</output>
		</layer>
		<layer id="54" name="/backbone/stage2/unit2/Add" type="Add" version="opset1">
			<data auto_broadcast="numpy" />
			<input>
				<port id="0" precision="FP32">
					<dim>-1</dim>
					<dim>24</dim>
					<dim>216</dim>
					<dim>216</dim>
				</port>
				<port id="1" precision="FP32">
					<dim>-1</dim>
					<dim>24</dim>
					<dim>216</dim>
					<dim>216</dim>
				</port>
			</input>
			<output>
				<port id="2" precision="FP32" names="/backbone/stage2/unit2/Add_output_0">
					<dim>-1</dim>
					<dim>24</dim>
					<dim>216</dim>
					<dim>216</dim>
				</port>
			</output>
		</layer>
		<layer id="55" name="onnx::Conv_1078" type="Const" version="opset1">
			<data element_type="f32" shape="144, 24, 1, 1" offset="65056" size="13824" />
			<output>
				<port id="0" precision="FP32" names="onnx::Conv_1078">
					<dim>144</dim>
					<dim>24</dim>
					<dim>1</dim>
					<dim>1</dim>
				</port>
			</output>
		</layer>
		<layer id="56" name="/backbone/stage3/unit1/conv1/conv/Conv/WithoutBiases" type="Convolution" version="opset1">
			<data strides="1, 1" dilations="1, 1" pads_begin="0, 0" pads_end="0, 0" auto_pad="explicit" />
			<input>
				<port id="0" precision="FP32">
					<dim>-1</dim>
					<dim>24</dim>
					<dim>216</dim>
					<dim>216</dim>
				</port>
				<port id="1" precision="FP32">
					<dim>144</dim>
					<dim>24</dim>
					<dim>1</dim>
					<dim>1</dim>
				</port>
			</input>
			<output>
				<port id="2" precision="FP32">
					<dim>-1</dim>
					<dim>144</dim>
					<dim>216</dim>
					<dim>216</dim>
				</port>
			</output>
		</layer>
		<layer id="57" name="Reshape_465" type="Const" version="opset1">
			<data element_type="f32" shape="1, 144, 1, 1" offset="78880" size="576" />
			<output>
				<port id="0" precision="FP32">
					<dim>1</dim>
					<dim>144</dim>
					<dim>1</dim>
					<dim>1</dim>
				</port>
			</output>
		</layer>
		<layer id="58" name="/backbone/stage3/unit1/conv1/conv/Conv" type="Add" version="opset1">
			<data auto_broadcast="numpy" />
			<input>
				<port id="0" precision="FP32">
					<dim>-1</dim>
					<dim>144</dim>
					<dim>216</dim>
					<dim>216</dim>
				</port>
				<port id="1" precision="FP32">
					<dim>1</dim>
					<dim>144</dim>
					<dim>1</dim>
					<dim>1</dim>
				</port>
			</input>
			<output>
				<port id="2" precision="FP32" names="/backbone/stage3/unit1/conv1/conv/Conv_output_0">
					<dim>-1</dim>
					<dim>144</dim>
					<dim>216</dim>
					<dim>216</dim>
				</port>
			</output>
		</layer>
		<layer id="59" name="/backbone/stage3/unit1/conv1/activ/Clip" type="Clamp" version="opset1">
			<data min="0" max="6" />
			<input>
				<port id="0" precision="FP32">
					<dim>-1</dim>
					<dim>144</dim>
					<dim>216</dim>
					<dim>216</dim>
				</port>
			</input>
			<output>
				<port id="1" precision="FP32" names="/backbone/stage3/unit1/conv1/activ/Clip_output_0">
					<dim>-1</dim>
					<dim>144</dim>
					<dim>216</dim>
					<dim>216</dim>
				</port>
			</output>
		</layer>
		<layer id="60" name="Reshape_480" type="Const" version="opset1">
			<data element_type="f32" shape="144, 1, 1, 3, 3" offset="79456" size="5184" />
			<output>
				<port id="0" precision="FP32">
					<dim>144</dim>
					<dim>1</dim>
					<dim>1</dim>
					<dim>3</dim>
					<dim>3</dim>
				</port>
			</output>
		</layer>
		<layer id="61" name="/backbone/stage3/unit1/conv2/conv/Conv/WithoutBiases" type="GroupConvolution" version="opset1">
			<data strides="2, 2" pads_begin="1, 1" pads_end="1, 1" dilations="1, 1" auto_pad="explicit" />
			<input>
				<port id="0" precision="FP32">
					<dim>-1</dim>
					<dim>144</dim>
					<dim>216</dim>
					<dim>216</dim>
				</port>
				<port id="1" precision="FP32">
					<dim>144</dim>
					<dim>1</dim>
					<dim>1</dim>
					<dim>3</dim>
					<dim>3</dim>
				</port>
			</input>
			<output>
				<port id="2" precision="FP32">
					<dim>-1</dim>
					<dim>144</dim>
					<dim>108</dim>
					<dim>108</dim>
				</port>
			</output>
		</layer>
		<layer id="62" name="Reshape_532" type="Const" version="opset1">
			<data element_type="f32" shape="1, 144, 1, 1" offset="84640" size="576" />
			<output>
				<port id="0" precision="FP32">
					<dim>1</dim>
					<dim>144</dim>
					<dim>1</dim>
					<dim>1</dim>
				</port>
			</output>
		</layer>
		<layer id="63" name="/backbone/stage3/unit1/conv2/conv/Conv" type="Add" version="opset1">
			<data auto_broadcast="numpy" />
			<input>
				<port id="0" precision="FP32">
					<dim>-1</dim>
					<dim>144</dim>
					<dim>108</dim>
					<dim>108</dim>
				</port>
				<port id="1" precision="FP32">
					<dim>1</dim>
					<dim>144</dim>
					<dim>1</dim>
					<dim>1</dim>
				</port>
			</input>
			<output>
				<port id="2" precision="FP32" names="/backbone/stage3/unit1/conv2/conv/Conv_output_0">
					<dim>-1</dim>
					<dim>144</dim>
					<dim>108</dim>
					<dim>108</dim>
				</port>
			</output>
		</layer>
		<layer id="64" name="/backbone/stage3/unit1/conv2/activ/Clip" type="Clamp" version="opset1">
			<data min="0" max="6" />
			<input>
				<port id="0" precision="FP32">
					<dim>-1</dim>
					<dim>144</dim>
					<dim>108</dim>
					<dim>108</dim>
				</port>
			</input>
			<output>
				<port id="1" precision="FP32" names="/backbone/stage3/unit1/conv2/activ/Clip_output_0">
					<dim>-1</dim>
					<dim>144</dim>
					<dim>108</dim>
					<dim>108</dim>
				</port>
			</output>
		</layer>
		<layer id="65" name="onnx::Conv_1084" type="Const" version="opset1">
			<data element_type="f32" shape="32, 144, 1, 1" offset="85216" size="18432" />
			<output>
				<port id="0" precision="FP32" names="onnx::Conv_1084">
					<dim>32</dim>
					<dim>144</dim>
					<dim>1</dim>
					<dim>1</dim>
				</port>
			</output>
		</layer>
		<layer id="66" name="/backbone/stage3/unit1/conv3/conv/Conv/WithoutBiases" type="Convolution" version="opset1">
			<data strides="1, 1" dilations="1, 1" pads_begin="0, 0" pads_end="0, 0" auto_pad="explicit" />
			<input>
				<port id="0" precision="FP32">
					<dim>-1</dim>
					<dim>144</dim>
					<dim>108</dim>
					<dim>108</dim>
				</port>
				<port id="1" precision="FP32">
					<dim>32</dim>
					<dim>144</dim>
					<dim>1</dim>
					<dim>1</dim>
				</port>
			</input>
			<output>
				<port id="2" precision="FP32">
					<dim>-1</dim>
					<dim>32</dim>
					<dim>108</dim>
					<dim>108</dim>
				</port>
			</output>
		</layer>
		<layer id="67" name="Reshape_551" type="Const" version="opset1">
			<data element_type="f32" shape="1, 32, 1, 1" offset="103648" size="128" />
			<output>
				<port id="0" precision="FP32">
					<dim>1</dim>
					<dim>32</dim>
					<dim>1</dim>
					<dim>1</dim>
				</port>
			</output>
		</layer>
		<layer id="68" name="/backbone/stage3/unit1/conv3/conv/Conv" type="Add" version="opset1">
			<data auto_broadcast="numpy" />
			<input>
				<port id="0" precision="FP32">
					<dim>-1</dim>
					<dim>32</dim>
					<dim>108</dim>
					<dim>108</dim>
				</port>
				<port id="1" precision="FP32">
					<dim>1</dim>
					<dim>32</dim>
					<dim>1</dim>
					<dim>1</dim>
				</port>
			</input>
			<output>
				<port id="2" precision="FP32" names="/backbone/stage3/unit1/conv3/conv/Conv_output_0">
					<dim>-1</dim>
					<dim>32</dim>
					<dim>108</dim>
					<dim>108</dim>
				</port>
			</output>
		</layer>
		<layer id="69" name="onnx::Conv_1087" type="Const" version="opset1">
			<data element_type="f32" shape="192, 32, 1, 1" offset="103776" size="24576" />
			<output>
				<port id="0" precision="FP32" names="onnx::Conv_1087">
					<dim>192</dim>
					<dim>32</dim>
					<dim>1</dim>
					<dim>1</dim>
				</port>
			</output>
		</layer>
		<layer id="70" name="/backbone/stage3/unit2/conv1/conv/Conv/WithoutBiases" type="Convolution" version="opset1">
			<data strides="1, 1" dilations="1, 1" pads_begin="0, 0" pads_end="0, 0" auto_pad="explicit" />
			<input>
				<port id="0" precision="FP32">
					<dim>-1</dim>
					<dim>32</dim>
					<dim>108</dim>
					<dim>108</dim>
				</port>
				<port id="1" precision="FP32">
					<dim>192</dim>
					<dim>32</dim>
					<dim>1</dim>
					<dim>1</dim>
				</port>
			</input>
			<output>
				<port id="2" precision="FP32">
					<dim>-1</dim>
					<dim>192</dim>
					<dim>108</dim>
					<dim>108</dim>
				</port>
			</output>
		</layer>
		<layer id="71" name="Reshape_566" type="Const" version="opset1">
			<data element_type="f32" shape="1, 192, 1, 1" offset="128352" size="768" />
			<output>
				<port id="0" precision="FP32">
					<dim>1</dim>
					<dim>192</dim>
					<dim>1</dim>
					<dim>1</dim>
				</port>
			</output>
		</layer>
		<layer id="72" name="/backbone/stage3/unit2/conv1/conv/Conv" type="Add" version="opset1">
			<data auto_broadcast="numpy" />
			<input>
				<port id="0" precision="FP32">
					<dim>-1</dim>
					<dim>192</dim>
					<dim>108</dim>
					<dim>108</dim>
				</port>
				<port id="1" precision="FP32">
					<dim>1</dim>
					<dim>192</dim>
					<dim>1</dim>
					<dim>1</dim>
				</port>
			</input>
			<output>
				<port id="2" precision="FP32" names="/backbone/stage3/unit2/conv1/conv/Conv_output_0">
					<dim>-1</dim>
					<dim>192</dim>
					<dim>108</dim>
					<dim>108</dim>
				</port>
			</output>
		</layer>
		<layer id="73" name="/backbone/stage3/unit2/conv1/activ/Clip" type="Clamp" version="opset1">
			<data min="0" max="6" />
			<input>
				<port id="0" precision="FP32">
					<dim>-1</dim>
					<dim>192</dim>
					<dim>108</dim>
					<dim>108</dim>
				</port>
			</input>
			<output>
				<port id="1" precision="FP32" names="/backbone/stage3/unit2/conv1/activ/Clip_output_0">
					<dim>-1</dim>
					<dim>192</dim>
					<dim>108</dim>
					<dim>108</dim>
				</port>
			</output>
		</layer>
		<layer id="74" name="Reshape_581" type="Const" version="opset1">
			<data element_type="f32" shape="192, 1, 1, 3, 3" offset="129120" size="6912" />
			<output>
				<port id="0" precision="FP32">
					<dim>192</dim>
					<dim>1</dim>
					<dim>1</dim>
					<dim>3</dim>
					<dim>3</dim>
				</port>
			</output>
		</layer>
		<layer id="75" name="/backbone/stage3/unit2/conv2/conv/Conv/WithoutBiases" type="GroupConvolution" version="opset1">
			<data strides="1, 1" pads_begin="1, 1" pads_end="1, 1" dilations="1, 1" auto_pad="explicit" />
			<input>
				<port id="0" precision="FP32">
					<dim>-1</dim>
					<dim>192</dim>
					<dim>108</dim>
					<dim>108</dim>
				</port>
				<port id="1" precision="FP32">
					<dim>192</dim>
					<dim>1</dim>
					<dim>1</dim>
					<dim>3</dim>
					<dim>3</dim>
				</port>
			</input>
			<output>
				<port id="2" precision="FP32">
					<dim>-1</dim>
					<dim>192</dim>
					<dim>108</dim>
					<dim>108</dim>
				</port>
			</output>
		</layer>
		<layer id="76" name="Reshape_633" type="Const" version="opset1">
			<data element_type="f32" shape="1, 192, 1, 1" offset="136032" size="768" />
			<output>
				<port id="0" precision="FP32">
					<dim>1</dim>
					<dim>192</dim>
					<dim>1</dim>
					<dim>1</dim>
				</port>
			</output>
		</layer>
		<layer id="77" name="/backbone/stage3/unit2/conv2/conv/Conv" type="Add" version="opset1">
			<data auto_broadcast="numpy" />
			<input>
				<port id="0" precision="FP32">
					<dim>-1</dim>
					<dim>192</dim>
					<dim>108</dim>
					<dim>108</dim>
				</port>
				<port id="1" precision="FP32">
					<dim>1</dim>
					<dim>192</dim>
					<dim>1</dim>
					<dim>1</dim>
				</port>
			</input>
			<output>
				<port id="2" precision="FP32" names="/backbone/stage3/unit2/conv2/conv/Conv_output_0">
					<dim>-1</dim>
					<dim>192</dim>
					<dim>108</dim>
					<dim>108</dim>
				</port>
			</output>
		</layer>
		<layer id="78" name="/backbone/stage3/unit2/conv2/activ/Clip" type="Clamp" version="opset1">
			<data min="0" max="6" />
			<input>
				<port id="0" precision="FP32">
					<dim>-1</dim>
					<dim>192</dim>
					<dim>108</dim>
					<dim>108</dim>
				</port>
			</input>
			<output>
				<port id="1" precision="FP32" names="/backbone/stage3/unit2/conv2/activ/Clip_output_0">
					<dim>-1</dim>
					<dim>192</dim>
					<dim>108</dim>
					<dim>108</dim>
				</port>
			</output>
		</layer>
		<layer id="79" name="onnx::Conv_1093" type="Const" version="opset1">
			<data element_type="f32" shape="32, 192, 1, 1" offset="136800" size="24576" />
			<output>
				<port id="0" precision="FP32" names="onnx::Conv_1093">
					<dim>32</dim>
					<dim>192</dim>
					<dim>1</dim>
					<dim>1</dim>
				</port>
			</output>
		</layer>
		<layer id="80" name="/backbone/stage3/unit2/conv3/conv/Conv/WithoutBiases" type="Convolution" version="opset1">
			<data strides="1, 1" dilations="1, 1" pads_begin="0, 0" pads_end="0, 0" auto_pad="explicit" />
			<input>
				<port id="0" precision="FP32">
					<dim>-1</dim>
					<dim>192</dim>
					<dim>108</dim>
					<dim>108</dim>
				</port>
				<port id="1" precision="FP32">
					<dim>32</dim>
					<dim>192</dim>
					<dim>1</dim>
					<dim>1</dim>
				</port>
			</input>
			<output>
				<port id="2" precision="FP32">
					<dim>-1</dim>
					<dim>32</dim>
					<dim>108</dim>
					<dim>108</dim>
				</port>
			</output>
		</layer>
		<layer id="81" name="Reshape_652" type="Const" version="opset1">
			<data element_type="f32" shape="1, 32, 1, 1" offset="161376" size="128" />
			<output>
				<port id="0" precision="FP32">
					<dim>1</dim>
					<dim>32</dim>
					<dim>1</dim>
					<dim>1</dim>
				</port>
			</output>
		</layer>
		<layer id="82" name="/backbone/stage3/unit2/conv3/conv/Conv" type="Add" version="opset1">
			<data auto_broadcast="numpy" />
			<input>
				<port id="0" precision="FP32">
					<dim>-1</dim>
					<dim>32</dim>
					<dim>108</dim>
					<dim>108</dim>
				</port>
				<port id="1" precision="FP32">
					<dim>1</dim>
					<dim>32</dim>
					<dim>1</dim>
					<dim>1</dim>
				</port>
			</input>
			<output>
				<port id="2" precision="FP32" names="/backbone/stage3/unit2/conv3/conv/Conv_output_0">
					<dim>-1</dim>
					<dim>32</dim>
					<dim>108</dim>
					<dim>108</dim>
				</port>
			</output>
		</layer>
		<layer id="83" name="/backbone/stage3/unit2/Add" type="Add" version="opset1">
			<data auto_broadcast="numpy" />
			<input>
				<port id="0" precision="FP32">
					<dim>-1</dim>
					<dim>32</dim>
					<dim>108</dim>
					<dim>108</dim>
				</port>
				<port id="1" precision="FP32">
					<dim>-1</dim>
					<dim>32</dim>
					<dim>108</dim>
					<dim>108</dim>
				</port>
			</input>
			<output>
				<port id="2" precision="FP32" names="/backbone/stage3/unit2/Add_output_0">
					<dim>-1</dim>
					<dim>32</dim>
					<dim>108</dim>
					<dim>108</dim>
				</port>
			</output>
		</layer>
		<layer id="84" name="onnx::Conv_1096" type="Const" version="opset1">
			<data element_type="f32" shape="192, 32, 1, 1" offset="161504" size="24576" />
			<output>
				<port id="0" precision="FP32" names="onnx::Conv_1096">
					<dim>192</dim>
					<dim>32</dim>
					<dim>1</dim>
					<dim>1</dim>
				</port>
			</output>
		</layer>
		<layer id="85" name="/backbone/stage3/unit3/conv1/conv/Conv/WithoutBiases" type="Convolution" version="opset1">
			<data strides="1, 1" dilations="1, 1" pads_begin="0, 0" pads_end="0, 0" auto_pad="explicit" />
			<input>
				<port id="0" precision="FP32">
					<dim>-1</dim>
					<dim>32</dim>
					<dim>108</dim>
					<dim>108</dim>
				</port>
				<port id="1" precision="FP32">
					<dim>192</dim>
					<dim>32</dim>
					<dim>1</dim>
					<dim>1</dim>
				</port>
			</input>
			<output>
				<port id="2" precision="FP32">
					<dim>-1</dim>
					<dim>192</dim>
					<dim>108</dim>
					<dim>108</dim>
				</port>
			</output>
		</layer>
		<layer id="86" name="Reshape_668" type="Const" version="opset1">
			<data element_type="f32" shape="1, 192, 1, 1" offset="186080" size="768" />
			<output>
				<port id="0" precision="FP32">
					<dim>1</dim>
					<dim>192</dim>
					<dim>1</dim>
					<dim>1</dim>
				</port>
			</output>
		</layer>
		<layer id="87" name="/backbone/stage3/unit3/conv1/conv/Conv" type="Add" version="opset1">
			<data auto_broadcast="numpy" />
			<input>
				<port id="0" precision="FP32">
					<dim>-1</dim>
					<dim>192</dim>
					<dim>108</dim>
					<dim>108</dim>
				</port>
				<port id="1" precision="FP32">
					<dim>1</dim>
					<dim>192</dim>
					<dim>1</dim>
					<dim>1</dim>
				</port>
			</input>
			<output>
				<port id="2" precision="FP32" names="/backbone/stage3/unit3/conv1/conv/Conv_output_0">
					<dim>-1</dim>
					<dim>192</dim>
					<dim>108</dim>
					<dim>108</dim>
				</port>
			</output>
		</layer>
		<layer id="88" name="/backbone/stage3/unit3/conv1/activ/Clip" type="Clamp" version="opset1">
			<data min="0" max="6" />
			<input>
				<port id="0" precision="FP32">
					<dim>-1</dim>
					<dim>192</dim>
					<dim>108</dim>
					<dim>108</dim>
				</port>
			</input>
			<output>
				<port id="1" precision="FP32" names="/backbone/stage3/unit3/conv1/activ/Clip_output_0">
					<dim>-1</dim>
					<dim>192</dim>
					<dim>108</dim>
					<dim>108</dim>
				</port>
			</output>
		</layer>
		<layer id="89" name="Reshape_683" type="Const" version="opset1">
			<data element_type="f32" shape="192, 1, 1, 3, 3" offset="186848" size="6912" />
			<output>
				<port id="0" precision="FP32">
					<dim>192</dim>
					<dim>1</dim>
					<dim>1</dim>
					<dim>3</dim>
					<dim>3</dim>
				</port>
			</output>
		</layer>
		<layer id="90" name="/backbone/stage3/unit3/conv2/conv/Conv/WithoutBiases" type="GroupConvolution" version="opset1">
			<data strides="1, 1" pads_begin="1, 1" pads_end="1, 1" dilations="1, 1" auto_pad="explicit" />
			<input>
				<port id="0" precision="FP32">
					<dim>-1</dim>
					<dim>192</dim>
					<dim>108</dim>
					<dim>108</dim>
				</port>
				<port id="1" precision="FP32">
					<dim>192</dim>
					<dim>1</dim>
					<dim>1</dim>
					<dim>3</dim>
					<dim>3</dim>
				</port>
			</input>
			<output>
				<port id="2" precision="FP32">
					<dim>-1</dim>
					<dim>192</dim>
					<dim>108</dim>
					<dim>108</dim>
				</port>
			</output>
		</layer>
		<layer id="91" name="Reshape_735" type="Const" version="opset1">
			<data element_type="f32" shape="1, 192, 1, 1" offset="193760" size="768" />
			<output>
				<port id="0" precision="FP32">
					<dim>1</dim>
					<dim>192</dim>
					<dim>1</dim>
					<dim>1</dim>
				</port>
			</output>
		</layer>
		<layer id="92" name="/backbone/stage3/unit3/conv2/conv/Conv" type="Add" version="opset1">
			<data auto_broadcast="numpy" />
			<input>
				<port id="0" precision="FP32">
					<dim>-1</dim>
					<dim>192</dim>
					<dim>108</dim>
					<dim>108</dim>
				</port>
				<port id="1" precision="FP32">
					<dim>1</dim>
					<dim>192</dim>
					<dim>1</dim>
					<dim>1</dim>
				</port>
			</input>
			<output>
				<port id="2" precision="FP32" names="/backbone/stage3/unit3/conv2/conv/Conv_output_0">
					<dim>-1</dim>
					<dim>192</dim>
					<dim>108</dim>
					<dim>108</dim>
				</port>
			</output>
		</layer>
		<layer id="93" name="/backbone/stage3/unit3/conv2/activ/Clip" type="Clamp" version="opset1">
			<data min="0" max="6" />
			<input>
				<port id="0" precision="FP32">
					<dim>-1</dim>
					<dim>192</dim>
					<dim>108</dim>
					<dim>108</dim>
				</port>
			</input>
			<output>
				<port id="1" precision="FP32" names="/backbone/stage3/unit3/conv2/activ/Clip_output_0">
					<dim>-1</dim>
					<dim>192</dim>
					<dim>108</dim>
					<dim>108</dim>
				</port>
			</output>
		</layer>
		<layer id="94" name="onnx::Conv_1102" type="Const" version="opset1">
			<data element_type="f32" shape="32, 192, 1, 1" offset="194528" size="24576" />
			<output>
				<port id="0" precision="FP32" names="onnx::Conv_1102">
					<dim>32</dim>
					<dim>192</dim>
					<dim>1</dim>
					<dim>1</dim>
				</port>
			</output>
		</layer>
		<layer id="95" name="/backbone/stage3/unit3/conv3/conv/Conv/WithoutBiases" type="Convolution" version="opset1">
			<data strides="1, 1" dilations="1, 1" pads_begin="0, 0" pads_end="0, 0" auto_pad="explicit" />
			<input>
				<port id="0" precision="FP32">
					<dim>-1</dim>
					<dim>192</dim>
					<dim>108</dim>
					<dim>108</dim>
				</port>
				<port id="1" precision="FP32">
					<dim>32</dim>
					<dim>192</dim>
					<dim>1</dim>
					<dim>1</dim>
				</port>
			</input>
			<output>
				<port id="2" precision="FP32">
					<dim>-1</dim>
					<dim>32</dim>
					<dim>108</dim>
					<dim>108</dim>
				</port>
			</output>
		</layer>
		<layer id="96" name="Reshape_754" type="Const" version="opset1">
			<data element_type="f32" shape="1, 32, 1, 1" offset="219104" size="128" />
			<output>
				<port id="0" precision="FP32">
					<dim>1</dim>
					<dim>32</dim>
					<dim>1</dim>
					<dim>1</dim>
				</port>
			</output>
		</layer>
		<layer id="97" name="/backbone/stage3/unit3/conv3/conv/Conv" type="Add" version="opset1">
			<data auto_broadcast="numpy" />
			<input>
				<port id="0" precision="FP32">
					<dim>-1</dim>
					<dim>32</dim>
					<dim>108</dim>
					<dim>108</dim>
				</port>
				<port id="1" precision="FP32">
					<dim>1</dim>
					<dim>32</dim>
					<dim>1</dim>
					<dim>1</dim>
				</port>
			</input>
			<output>
				<port id="2" precision="FP32" names="/backbone/stage3/unit3/conv3/conv/Conv_output_0">
					<dim>-1</dim>
					<dim>32</dim>
					<dim>108</dim>
					<dim>108</dim>
				</port>
			</output>
		</layer>
		<layer id="98" name="/backbone/stage3/unit3/Add" type="Add" version="opset1">
			<data auto_broadcast="numpy" />
			<input>
				<port id="0" precision="FP32">
					<dim>-1</dim>
					<dim>32</dim>
					<dim>108</dim>
					<dim>108</dim>
				</port>
				<port id="1" precision="FP32">
					<dim>-1</dim>
					<dim>32</dim>
					<dim>108</dim>
					<dim>108</dim>
				</port>
			</input>
			<output>
				<port id="2" precision="FP32" names="/backbone/stage3/unit3/Add_output_0">
					<dim>-1</dim>
					<dim>32</dim>
					<dim>108</dim>
					<dim>108</dim>
				</port>
			</output>
		</layer>
		<layer id="99" name="onnx::Conv_1105" type="Const" version="opset1">
			<data element_type="f32" shape="192, 32, 1, 1" offset="219232" size="24576" />
			<output>
				<port id="0" precision="FP32" names="onnx::Conv_1105">
					<dim>192</dim>
					<dim>32</dim>
					<dim>1</dim>
					<dim>1</dim>
				</port>
			</output>
		</layer>
		<layer id="100" name="/backbone/stage4/unit1/conv1/conv/Conv/WithoutBiases" type="Convolution" version="opset1">
			<data strides="1, 1" dilations="1, 1" pads_begin="0, 0" pads_end="0, 0" auto_pad="explicit" />
			<input>
				<port id="0" precision="FP32">
					<dim>-1</dim>
					<dim>32</dim>
					<dim>108</dim>
					<dim>108</dim>
				</port>
				<port id="1" precision="FP32">
					<dim>192</dim>
					<dim>32</dim>
					<dim>1</dim>
					<dim>1</dim>
				</port>
			</input>
			<output>
				<port id="2" precision="FP32">
					<dim>-1</dim>
					<dim>192</dim>
					<dim>108</dim>
					<dim>108</dim>
				</port>
			</output>
		</layer>
		<layer id="101" name="Reshape_770" type="Const" version="opset1">
			<data element_type="f32" shape="1, 192, 1, 1" offset="243808" size="768" />
			<output>
				<port id="0" precision="FP32">
					<dim>1</dim>
					<dim>192</dim>
					<dim>1</dim>
					<dim>1</dim>
				</port>
			</output>
		</layer>
		<layer id="102" name="/backbone/stage4/unit1/conv1/conv/Conv" type="Add" version="opset1">
			<data auto_broadcast="numpy" />
			<input>
				<port id="0" precision="FP32">
					<dim>-1</dim>
					<dim>192</dim>
					<dim>108</dim>
					<dim>108</dim>
				</port>
				<port id="1" precision="FP32">
					<dim>1</dim>
					<dim>192</dim>
					<dim>1</dim>
					<dim>1</dim>
				</port>
			</input>
			<output>
				<port id="2" precision="FP32" names="/backbone/stage4/unit1/conv1/conv/Conv_output_0">
					<dim>-1</dim>
					<dim>192</dim>
					<dim>108</dim>
					<dim>108</dim>
				</port>
			</output>
		</layer>
		<layer id="103" name="/backbone/stage4/unit1/conv1/activ/Clip" type="Clamp" version="opset1">
			<data min="0" max="6" />
			<input>
				<port id="0" precision="FP32">
					<dim>-1</dim>
					<dim>192</dim>
					<dim>108</dim>
					<dim>108</dim>
				</port>
			</input>
			<output>
				<port id="1" precision="FP32" names="/backbone/stage4/unit1/conv1/activ/Clip_output_0">
					<dim>-1</dim>
					<dim>192</dim>
					<dim>108</dim>
					<dim>108</dim>
				</port>
			</output>
		</layer>
		<layer id="104" name="Reshape_785" type="Const" version="opset1">
			<data element_type="f32" shape="192, 1, 1, 3, 3" offset="244576" size="6912" />
			<output>
				<port id="0" precision="FP32">
					<dim>192</dim>
					<dim>1</dim>
					<dim>1</dim>
					<dim>3</dim>
					<dim>3</dim>
				</port>
			</output>
		</layer>
		<layer id="105" name="/backbone/stage4/unit1/conv2/conv/Conv/WithoutBiases" type="GroupConvolution" version="opset1">
			<data strides="2, 2" pads_begin="1, 1" pads_end="1, 1" dilations="1, 1" auto_pad="explicit" />
			<input>
				<port id="0" precision="FP32">
					<dim>-1</dim>
					<dim>192</dim>
					<dim>108</dim>
					<dim>108</dim>
				</port>
				<port id="1" precision="FP32">
					<dim>192</dim>
					<dim>1</dim>
					<dim>1</dim>
					<dim>3</dim>
					<dim>3</dim>
				</port>
			</input>
			<output>
				<port id="2" precision="FP32">
					<dim>-1</dim>
					<dim>192</dim>
					<dim>54</dim>
					<dim>54</dim>
				</port>
			</output>
		</layer>
		<layer id="106" name="Reshape_837" type="Const" version="opset1">
			<data element_type="f32" shape="1, 192, 1, 1" offset="251488" size="768" />
			<output>
				<port id="0" precision="FP32">
					<dim>1</dim>
					<dim>192</dim>
					<dim>1</dim>
					<dim>1</dim>
				</port>
			</output>
		</layer>
		<layer id="107" name="/backbone/stage4/unit1/conv2/conv/Conv" type="Add" version="opset1">
			<data auto_broadcast="numpy" />
			<input>
				<port id="0" precision="FP32">
					<dim>-1</dim>
					<dim>192</dim>
					<dim>54</dim>
					<dim>54</dim>
				</port>
				<port id="1" precision="FP32">
					<dim>1</dim>
					<dim>192</dim>
					<dim>1</dim>
					<dim>1</dim>
				</port>
			</input>
			<output>
				<port id="2" precision="FP32" names="/backbone/stage4/unit1/conv2/conv/Conv_output_0">
					<dim>-1</dim>
					<dim>192</dim>
					<dim>54</dim>
					<dim>54</dim>
				</port>
			</output>
		</layer>
		<layer id="108" name="/backbone/stage4/unit1/conv2/activ/Clip" type="Clamp" version="opset1">
			<data min="0" max="6" />
			<input>
				<port id="0" precision="FP32">
					<dim>-1</dim>
					<dim>192</dim>
					<dim>54</dim>
					<dim>54</dim>
				</port>
			</input>
			<output>
				<port id="1" precision="FP32" names="/backbone/stage4/unit1/conv2/activ/Clip_output_0">
					<dim>-1</dim>
					<dim>192</dim>
					<dim>54</dim>
					<dim>54</dim>
				</port>
			</output>
		</layer>
		<layer id="109" name="onnx::Conv_1111" type="Const" version="opset1">
			<data element_type="f32" shape="64, 192, 1, 1" offset="252256" size="49152" />
			<output>
				<port id="0" precision="FP32" names="onnx::Conv_1111">
					<dim>64</dim>
					<dim>192</dim>
					<dim>1</dim>
					<dim>1</dim>
				</port>
			</output>
		</layer>
		<layer id="110" name="/backbone/stage4/unit1/conv3/conv/Conv/WithoutBiases" type="Convolution" version="opset1">
			<data strides="1, 1" dilations="1, 1" pads_begin="0, 0" pads_end="0, 0" auto_pad="explicit" />
			<input>
				<port id="0" precision="FP32">
					<dim>-1</dim>
					<dim>192</dim>
					<dim>54</dim>
					<dim>54</dim>
				</port>
				<port id="1" precision="FP32">
					<dim>64</dim>
					<dim>192</dim>
					<dim>1</dim>
					<dim>1</dim>
				</port>
			</input>
			<output>
				<port id="2" precision="FP32">
					<dim>-1</dim>
					<dim>64</dim>
					<dim>54</dim>
					<dim>54</dim>
				</port>
			</output>
		</layer>
		<layer id="111" name="Reshape_856" type="Const" version="opset1">
			<data element_type="f32" shape="1, 64, 1, 1" offset="301408" size="256" />
			<output>
				<port id="0" precision="FP32">
					<dim>1</dim>
					<dim>64</dim>
					<dim>1</dim>
					<dim>1</dim>
				</port>
			</output>
		</layer>
		<layer id="112" name="/backbone/stage4/unit1/conv3/conv/Conv" type="Add" version="opset1">
			<data auto_broadcast="numpy" />
			<input>
				<port id="0" precision="FP32">
					<dim>-1</dim>
					<dim>64</dim>
					<dim>54</dim>
					<dim>54</dim>
				</port>
				<port id="1" precision="FP32">
					<dim>1</dim>
					<dim>64</dim>
					<dim>1</dim>
					<dim>1</dim>
				</port>
			</input>
			<output>
				<port id="2" precision="FP32" names="/backbone/stage4/unit1/conv3/conv/Conv_output_0">
					<dim>-1</dim>
					<dim>64</dim>
					<dim>54</dim>
					<dim>54</dim>
				</port>
			</output>
		</layer>
		<layer id="113" name="onnx::Conv_1114" type="Const" version="opset1">
			<data element_type="f32" shape="384, 64, 1, 1" offset="301664" size="98304" />
			<output>
				<port id="0" precision="FP32" names="onnx::Conv_1114">
					<dim>384</dim>
					<dim>64</dim>
					<dim>1</dim>
					<dim>1</dim>
				</port>
			</output>
		</layer>
		<layer id="114" name="/backbone/stage4/unit2/conv1/conv/Conv/WithoutBiases" type="Convolution" version="opset1">
			<data strides="1, 1" dilations="1, 1" pads_begin="0, 0" pads_end="0, 0" auto_pad="explicit" />
			<input>
				<port id="0" precision="FP32">
					<dim>-1</dim>
					<dim>64</dim>
					<dim>54</dim>
					<dim>54</dim>
				</port>
				<port id="1" precision="FP32">
					<dim>384</dim>
					<dim>64</dim>
					<dim>1</dim>
					<dim>1</dim>
				</port>
			</input>
			<output>
				<port id="2" precision="FP32">
					<dim>-1</dim>
					<dim>384</dim>
					<dim>54</dim>
					<dim>54</dim>
				</port>
			</output>
		</layer>
		<layer id="115" name="Reshape_871" type="Const" version="opset1">
			<data element_type="f32" shape="1, 384, 1, 1" offset="399968" size="1536" />
			<output>
				<port id="0" precision="FP32">
					<dim>1</dim>
					<dim>384</dim>
					<dim>1</dim>
					<dim>1</dim>
				</port>
			</output>
		</layer>
		<layer id="116" name="/backbone/stage4/unit2/conv1/conv/Conv" type="Add" version="opset1">
			<data auto_broadcast="numpy" />
			<input>
				<port id="0" precision="FP32">
					<dim>-1</dim>
					<dim>384</dim>
					<dim>54</dim>
					<dim>54</dim>
				</port>
				<port id="1" precision="FP32">
					<dim>1</dim>
					<dim>384</dim>
					<dim>1</dim>
					<dim>1</dim>
				</port>
			</input>
			<output>
				<port id="2" precision="FP32" names="/backbone/stage4/unit2/conv1/conv/Conv_output_0">
					<dim>-1</dim>
					<dim>384</dim>
					<dim>54</dim>
					<dim>54</dim>
				</port>
			</output>
		</layer>
		<layer id="117" name="/backbone/stage4/unit2/conv1/activ/Clip" type="Clamp" version="opset1">
			<data min="0" max="6" />
			<input>
				<port id="0" precision="FP32">
					<dim>-1</dim>
					<dim>384</dim>
					<dim>54</dim>
					<dim>54</dim>
				</port>
			</input>
			<output>
				<port id="1" precision="FP32" names="/backbone/stage4/unit2/conv1/activ/Clip_output_0">
					<dim>-1</dim>
					<dim>384</dim>
					<dim>54</dim>
					<dim>54</dim>
				</port>
			</output>
		</layer>
		<layer id="118" name="Reshape_886" type="Const" version="opset1">
			<data element_type="f32" shape="384, 1, 1, 3, 3" offset="401504" size="13824" />
			<output>
				<port id="0" precision="FP32">
					<dim>384</dim>
					<dim>1</dim>
					<dim>1</dim>
					<dim>3</dim>
					<dim>3</dim>
				</port>
			</output>
		</layer>
		<layer id="119" name="/backbone/stage4/unit2/conv2/conv/Conv/WithoutBiases" type="GroupConvolution" version="opset1">
			<data strides="1, 1" pads_begin="1, 1" pads_end="1, 1" dilations="1, 1" auto_pad="explicit" />
			<input>
				<port id="0" precision="FP32">
					<dim>-1</dim>
					<dim>384</dim>
					<dim>54</dim>
					<dim>54</dim>
				</port>
				<port id="1" precision="FP32">
					<dim>384</dim>
					<dim>1</dim>
					<dim>1</dim>
					<dim>3</dim>
					<dim>3</dim>
				</port>
			</input>
			<output>
				<port id="2" precision="FP32">
					<dim>-1</dim>
					<dim>384</dim>
					<dim>54</dim>
					<dim>54</dim>
				</port>
			</output>
		</layer>
		<layer id="120" name="Reshape_938" type="Const" version="opset1">
			<data element_type="f32" shape="1, 384, 1, 1" offset="415328" size="1536" />
			<output>
				<port id="0" precision="FP32">
					<dim>1</dim>
					<dim>384</dim>
					<dim>1</dim>
					<dim>1</dim>
				</port>
			</output>
		</layer>
		<layer id="121" name="/backbone/stage4/unit2/conv2/conv/Conv" type="Add" version="opset1">
			<data auto_broadcast="numpy" />
			<input>
				<port id="0" precision="FP32">
					<dim>-1</dim>
					<dim>384</dim>
					<dim>54</dim>
					<dim>54</dim>
				</port>
				<port id="1" precision="FP32">
					<dim>1</dim>
					<dim>384</dim>
					<dim>1</dim>
					<dim>1</dim>
				</port>
			</input>
			<output>
				<port id="2" precision="FP32" names="/backbone/stage4/unit2/conv2/conv/Conv_output_0">
					<dim>-1</dim>
					<dim>384</dim>
					<dim>54</dim>
					<dim>54</dim>
				</port>
			</output>
		</layer>
		<layer id="122" name="/backbone/stage4/unit2/conv2/activ/Clip" type="Clamp" version="opset1">
			<data min="0" max="6" />
			<input>
				<port id="0" precision="FP32">
					<dim>-1</dim>
					<dim>384</dim>
					<dim>54</dim>
					<dim>54</dim>
				</port>
			</input>
			<output>
				<port id="1" precision="FP32" names="/backbone/stage4/unit2/conv2/activ/Clip_output_0">
					<dim>-1</dim>
					<dim>384</dim>
					<dim>54</dim>
					<dim>54</dim>
				</port>
			</output>
		</layer>
		<layer id="123" name="onnx::Conv_1120" type="Const" version="opset1">
			<data element_type="f32" shape="64, 384, 1, 1" offset="416864" size="98304" />
			<output>
				<port id="0" precision="FP32" names="onnx::Conv_1120">
					<dim>64</dim>
					<dim>384</dim>
					<dim>1</dim>
					<dim>1</dim>
				</port>
			</output>
		</layer>
		<layer id="124" name="/backbone/stage4/unit2/conv3/conv/Conv/WithoutBiases" type="Convolution" version="opset1">
			<data strides="1, 1" dilations="1, 1" pads_begin="0, 0" pads_end="0, 0" auto_pad="explicit" />
			<input>
				<port id="0" precision="FP32">
					<dim>-1</dim>
					<dim>384</dim>
					<dim>54</dim>
					<dim>54</dim>
				</port>
				<port id="1" precision="FP32">
					<dim>64</dim>
					<dim>384</dim>
					<dim>1</dim>
					<dim>1</dim>
				</port>
			</input>
			<output>
				<port id="2" precision="FP32">
					<dim>-1</dim>
					<dim>64</dim>
					<dim>54</dim>
					<dim>54</dim>
				</port>
			</output>
		</layer>
		<layer id="125" name="Reshape_957" type="Const" version="opset1">
			<data element_type="f32" shape="1, 64, 1, 1" offset="515168" size="256" />
			<output>
				<port id="0" precision="FP32">
					<dim>1</dim>
					<dim>64</dim>
					<dim>1</dim>
					<dim>1</dim>
				</port>
			</output>
		</layer>
		<layer id="126" name="/backbone/stage4/unit2/conv3/conv/Conv" type="Add" version="opset1">
			<data auto_broadcast="numpy" />
			<input>
				<port id="0" precision="FP32">
					<dim>-1</dim>
					<dim>64</dim>
					<dim>54</dim>
					<dim>54</dim>
				</port>
				<port id="1" precision="FP32">
					<dim>1</dim>
					<dim>64</dim>
					<dim>1</dim>
					<dim>1</dim>
				</port>
			</input>
			<output>
				<port id="2" precision="FP32" names="/backbone/stage4/unit2/conv3/conv/Conv_output_0">
					<dim>-1</dim>
					<dim>64</dim>
					<dim>54</dim>
					<dim>54</dim>
				</port>
			</output>
		</layer>
		<layer id="127" name="/backbone/stage4/unit2/Add" type="Add" version="opset1">
			<data auto_broadcast="numpy" />
			<input>
				<port id="0" precision="FP32">
					<dim>-1</dim>
					<dim>64</dim>
					<dim>54</dim>
					<dim>54</dim>
				</port>
				<port id="1" precision="FP32">
					<dim>-1</dim>
					<dim>64</dim>
					<dim>54</dim>
					<dim>54</dim>
				</port>
			</input>
			<output>
				<port id="2" precision="FP32" names="/backbone/stage4/unit2/Add_output_0">
					<dim>-1</dim>
					<dim>64</dim>
					<dim>54</dim>
					<dim>54</dim>
				</port>
			</output>
		</layer>
		<layer id="128" name="onnx::Conv_1123" type="Const" version="opset1">
			<data element_type="f32" shape="384, 64, 1, 1" offset="515424" size="98304" />
			<output>
				<port id="0" precision="FP32" names="onnx::Conv_1123">
					<dim>384</dim>
					<dim>64</dim>
					<dim>1</dim>
					<dim>1</dim>
				</port>
			</output>
		</layer>
		<layer id="129" name="/backbone/stage4/unit3/conv1/conv/Conv/WithoutBiases" type="Convolution" version="opset1">
			<data strides="1, 1" dilations="1, 1" pads_begin="0, 0" pads_end="0, 0" auto_pad="explicit" />
			<input>
				<port id="0" precision="FP32">
					<dim>-1</dim>
					<dim>64</dim>
					<dim>54</dim>
					<dim>54</dim>
				</port>
				<port id="1" precision="FP32">
					<dim>384</dim>
					<dim>64</dim>
					<dim>1</dim>
					<dim>1</dim>
				</port>
			</input>
			<output>
				<port id="2" precision="FP32">
					<dim>-1</dim>
					<dim>384</dim>
					<dim>54</dim>
					<dim>54</dim>
				</port>
			</output>
		</layer>
		<layer id="130" name="Reshape_973" type="Const" version="opset1">
			<data element_type="f32" shape="1, 384, 1, 1" offset="613728" size="1536" />
			<output>
				<port id="0" precision="FP32">
					<dim>1</dim>
					<dim>384</dim>
					<dim>1</dim>
					<dim>1</dim>
				</port>
			</output>
		</layer>
		<layer id="131" name="/backbone/stage4/unit3/conv1/conv/Conv" type="Add" version="opset1">
			<data auto_broadcast="numpy" />
			<input>
				<port id="0" precision="FP32">
					<dim>-1</dim>
					<dim>384</dim>
					<dim>54</dim>
					<dim>54</dim>
				</port>
				<port id="1" precision="FP32">
					<dim>1</dim>
					<dim>384</dim>
					<dim>1</dim>
					<dim>1</dim>
				</port>
			</input>
			<output>
				<port id="2" precision="FP32" names="/backbone/stage4/unit3/conv1/conv/Conv_output_0">
					<dim>-1</dim>
					<dim>384</dim>
					<dim>54</dim>
					<dim>54</dim>
				</port>
			</output>
		</layer>
		<layer id="132" name="/backbone/stage4/unit3/conv1/activ/Clip" type="Clamp" version="opset1">
			<data min="0" max="6" />
			<input>
				<port id="0" precision="FP32">
					<dim>-1</dim>
					<dim>384</dim>
					<dim>54</dim>
					<dim>54</dim>
				</port>
			</input>
			<output>
				<port id="1" precision="FP32" names="/backbone/stage4/unit3/conv1/activ/Clip_output_0">
					<dim>-1</dim>
					<dim>384</dim>
					<dim>54</dim>
					<dim>54</dim>
				</port>
			</output>
		</layer>
		<layer id="133" name="Reshape_988" type="Const" version="opset1">
			<data element_type="f32" shape="384, 1, 1, 3, 3" offset="615264" size="13824" />
			<output>
				<port id="0" precision="FP32">
					<dim>384</dim>
					<dim>1</dim>
					<dim>1</dim>
					<dim>3</dim>
					<dim>3</dim>
				</port>
			</output>
		</layer>
		<layer id="134" name="/backbone/stage4/unit3/conv2/conv/Conv/WithoutBiases" type="GroupConvolution" version="opset1">
			<data strides="1, 1" pads_begin="1, 1" pads_end="1, 1" dilations="1, 1" auto_pad="explicit" />
			<input>
				<port id="0" precision="FP32">
					<dim>-1</dim>
					<dim>384</dim>
					<dim>54</dim>
					<dim>54</dim>
				</port>
				<port id="1" precision="FP32">
					<dim>384</dim>
					<dim>1</dim>
					<dim>1</dim>
					<dim>3</dim>
					<dim>3</dim>
				</port>
			</input>
			<output>
				<port id="2" precision="FP32">
					<dim>-1</dim>
					<dim>384</dim>
					<dim>54</dim>
					<dim>54</dim>
				</port>
			</output>
		</layer>
		<layer id="135" name="Reshape_1040" type="Const" version="opset1">
			<data element_type="f32" shape="1, 384, 1, 1" offset="629088" size="1536" />
			<output>
				<port id="0" precision="FP32">
					<dim>1</dim>
					<dim>384</dim>
					<dim>1</dim>
					<dim>1</dim>
				</port>
			</output>
		</layer>
		<layer id="136" name="/backbone/stage4/unit3/conv2/conv/Conv" type="Add" version="opset1">
			<data auto_broadcast="numpy" />
			<input>
				<port id="0" precision="FP32">
					<dim>-1</dim>
					<dim>384</dim>
					<dim>54</dim>
					<dim>54</dim>
				</port>
				<port id="1" precision="FP32">
					<dim>1</dim>
					<dim>384</dim>
					<dim>1</dim>
					<dim>1</dim>
				</port>
			</input>
			<output>
				<port id="2" precision="FP32" names="/backbone/stage4/unit3/conv2/conv/Conv_output_0">
					<dim>-1</dim>
					<dim>384</dim>
					<dim>54</dim>
					<dim>54</dim>
				</port>
			</output>
		</layer>
		<layer id="137" name="/backbone/stage4/unit3/conv2/activ/Clip" type="Clamp" version="opset1">
			<data min="0" max="6" />
			<input>
				<port id="0" precision="FP32">
					<dim>-1</dim>
					<dim>384</dim>
					<dim>54</dim>
					<dim>54</dim>
				</port>
			</input>
			<output>
				<port id="1" precision="FP32" names="/backbone/stage4/unit3/conv2/activ/Clip_output_0">
					<dim>-1</dim>
					<dim>384</dim>
					<dim>54</dim>
					<dim>54</dim>
				</port>
			</output>
		</layer>
		<layer id="138" name="onnx::Conv_1129" type="Const" version="opset1">
			<data element_type="f32" shape="64, 384, 1, 1" offset="630624" size="98304" />
			<output>
				<port id="0" precision="FP32" names="onnx::Conv_1129">
					<dim>64</dim>
					<dim>384</dim>
					<dim>1</dim>
					<dim>1</dim>
				</port>
			</output>
		</layer>
		<layer id="139" name="/backbone/stage4/unit3/conv3/conv/Conv/WithoutBiases" type="Convolution" version="opset1">
			<data strides="1, 1" dilations="1, 1" pads_begin="0, 0" pads_end="0, 0" auto_pad="explicit" />
			<input>
				<port id="0" precision="FP32">
					<dim>-1</dim>
					<dim>384</dim>
					<dim>54</dim>
					<dim>54</dim>
				</port>
				<port id="1" precision="FP32">
					<dim>64</dim>
					<dim>384</dim>
					<dim>1</dim>
					<dim>1</dim>
				</port>
			</input>
			<output>
				<port id="2" precision="FP32">
					<dim>-1</dim>
					<dim>64</dim>
					<dim>54</dim>
					<dim>54</dim>
				</port>
			</output>
		</layer>
		<layer id="140" name="Reshape_1059" type="Const" version="opset1">
			<data element_type="f32" shape="1, 64, 1, 1" offset="728928" size="256" />
			<output>
				<port id="0" precision="FP32">
					<dim>1</dim>
					<dim>64</dim>
					<dim>1</dim>
					<dim>1</dim>
				</port>
			</output>
		</layer>
		<layer id="141" name="/backbone/stage4/unit3/conv3/conv/Conv" type="Add" version="opset1">
			<data auto_broadcast="numpy" />
			<input>
				<port id="0" precision="FP32">
					<dim>-1</dim>
					<dim>64</dim>
					<dim>54</dim>
					<dim>54</dim>
				</port>
				<port id="1" precision="FP32">
					<dim>1</dim>
					<dim>64</dim>
					<dim>1</dim>
					<dim>1</dim>
				</port>
			</input>
			<output>
				<port id="2" precision="FP32" names="/backbone/stage4/unit3/conv3/conv/Conv_output_0">
					<dim>-1</dim>
					<dim>64</dim>
					<dim>54</dim>
					<dim>54</dim>
				</port>
			</output>
		</layer>
		<layer id="142" name="/backbone/stage4/unit3/Add" type="Add" version="opset1">
			<data auto_broadcast="numpy" />
			<input>
				<port id="0" precision="FP32">
					<dim>-1</dim>
					<dim>64</dim>
					<dim>54</dim>
					<dim>54</dim>
				</port>
				<port id="1" precision="FP32">
					<dim>-1</dim>
					<dim>64</dim>
					<dim>54</dim>
					<dim>54</dim>
				</port>
			</input>
			<output>
				<port id="2" precision="FP32" names="/backbone/stage4/unit3/Add_output_0">
					<dim>-1</dim>
					<dim>64</dim>
					<dim>54</dim>
					<dim>54</dim>
				</port>
			</output>
		</layer>
		<layer id="143" name="onnx::Conv_1132" type="Const" version="opset1">
			<data element_type="f32" shape="384, 64, 1, 1" offset="729184" size="98304" />
			<output>
				<port id="0" precision="FP32" names="onnx::Conv_1132">
					<dim>384</dim>
					<dim>64</dim>
					<dim>1</dim>
					<dim>1</dim>
				</port>
			</output>
		</layer>
		<layer id="144" name="/backbone/stage4/unit4/conv1/conv/Conv/WithoutBiases" type="Convolution" version="opset1">
			<data strides="1, 1" dilations="1, 1" pads_begin="0, 0" pads_end="0, 0" auto_pad="explicit" />
			<input>
				<port id="0" precision="FP32">
					<dim>-1</dim>
					<dim>64</dim>
					<dim>54</dim>
					<dim>54</dim>
				</port>
				<port id="1" precision="FP32">
					<dim>384</dim>
					<dim>64</dim>
					<dim>1</dim>
					<dim>1</dim>
				</port>
			</input>
			<output>
				<port id="2" precision="FP32">
					<dim>-1</dim>
					<dim>384</dim>
					<dim>54</dim>
					<dim>54</dim>
				</port>
			</output>
		</layer>
		<layer id="145" name="Reshape_1075" type="Const" version="opset1">
			<data element_type="f32" shape="1, 384, 1, 1" offset="827488" size="1536" />
			<output>
				<port id="0" precision="FP32">
					<dim>1</dim>
					<dim>384</dim>
					<dim>1</dim>
					<dim>1</dim>
				</port>
			</output>
		</layer>
		<layer id="146" name="/backbone/stage4/unit4/conv1/conv/Conv" type="Add" version="opset1">
			<data auto_broadcast="numpy" />
			<input>
				<port id="0" precision="FP32">
					<dim>-1</dim>
					<dim>384</dim>
					<dim>54</dim>
					<dim>54</dim>
				</port>
				<port id="1" precision="FP32">
					<dim>1</dim>
					<dim>384</dim>
					<dim>1</dim>
					<dim>1</dim>
				</port>
			</input>
			<output>
				<port id="2" precision="FP32" names="/backbone/stage4/unit4/conv1/conv/Conv_output_0">
					<dim>-1</dim>
					<dim>384</dim>
					<dim>54</dim>
					<dim>54</dim>
				</port>
			</output>
		</layer>
		<layer id="147" name="/backbone/stage4/unit4/conv1/activ/Clip" type="Clamp" version="opset1">
			<data min="0" max="6" />
			<input>
				<port id="0" precision="FP32">
					<dim>-1</dim>
					<dim>384</dim>
					<dim>54</dim>
					<dim>54</dim>
				</port>
			</input>
			<output>
				<port id="1" precision="FP32" names="/backbone/stage4/unit4/conv1/activ/Clip_output_0">
					<dim>-1</dim>
					<dim>384</dim>
					<dim>54</dim>
					<dim>54</dim>
				</port>
			</output>
		</layer>
		<layer id="148" name="Reshape_1090" type="Const" version="opset1">
			<data element_type="f32" shape="384, 1, 1, 3, 3" offset="829024" size="13824" />
			<output>
				<port id="0" precision="FP32">
					<dim>384</dim>
					<dim>1</dim>
					<dim>1</dim>
					<dim>3</dim>
					<dim>3</dim>
				</port>
			</output>
		</layer>
		<layer id="149" name="/backbone/stage4/unit4/conv2/conv/Conv/WithoutBiases" type="GroupConvolution" version="opset1">
			<data strides="1, 1" pads_begin="1, 1" pads_end="1, 1" dilations="1, 1" auto_pad="explicit" />
			<input>
				<port id="0" precision="FP32">
					<dim>-1</dim>
					<dim>384</dim>
					<dim>54</dim>
					<dim>54</dim>
				</port>
				<port id="1" precision="FP32">
					<dim>384</dim>
					<dim>1</dim>
					<dim>1</dim>
					<dim>3</dim>
					<dim>3</dim>
				</port>
			</input>
			<output>
				<port id="2" precision="FP32">
					<dim>-1</dim>
					<dim>384</dim>
					<dim>54</dim>
					<dim>54</dim>
				</port>
			</output>
		</layer>
		<layer id="150" name="Reshape_1142" type="Const" version="opset1">
			<data element_type="f32" shape="1, 384, 1, 1" offset="842848" size="1536" />
			<output>
				<port id="0" precision="FP32">
					<dim>1</dim>
					<dim>384</dim>
					<dim>1</dim>
					<dim>1</dim>
				</port>
			</output>
		</layer>
		<layer id="151" name="/backbone/stage4/unit4/conv2/conv/Conv" type="Add" version="opset1">
			<data auto_broadcast="numpy" />
			<input>
				<port id="0" precision="FP32">
					<dim>-1</dim>
					<dim>384</dim>
					<dim>54</dim>
					<dim>54</dim>
				</port>
				<port id="1" precision="FP32">
					<dim>1</dim>
					<dim>384</dim>
					<dim>1</dim>
					<dim>1</dim>
				</port>
			</input>
			<output>
				<port id="2" precision="FP32" names="/backbone/stage4/unit4/conv2/conv/Conv_output_0">
					<dim>-1</dim>
					<dim>384</dim>
					<dim>54</dim>
					<dim>54</dim>
				</port>
			</output>
		</layer>
		<layer id="152" name="/backbone/stage4/unit4/conv2/activ/Clip" type="Clamp" version="opset1">
			<data min="0" max="6" />
			<input>
				<port id="0" precision="FP32">
					<dim>-1</dim>
					<dim>384</dim>
					<dim>54</dim>
					<dim>54</dim>
				</port>
			</input>
			<output>
				<port id="1" precision="FP32" names="/backbone/stage4/unit4/conv2/activ/Clip_output_0">
					<dim>-1</dim>
					<dim>384</dim>
					<dim>54</dim>
					<dim>54</dim>
				</port>
			</output>
		</layer>
		<layer id="153" name="onnx::Conv_1138" type="Const" version="opset1">
			<data element_type="f32" shape="64, 384, 1, 1" offset="844384" size="98304" />
			<output>
				<port id="0" precision="FP32" names="onnx::Conv_1138">
					<dim>64</dim>
					<dim>384</dim>
					<dim>1</dim>
					<dim>1</dim>
				</port>
			</output>
		</layer>
		<layer id="154" name="/backbone/stage4/unit4/conv3/conv/Conv/WithoutBiases" type="Convolution" version="opset1">
			<data strides="1, 1" dilations="1, 1" pads_begin="0, 0" pads_end="0, 0" auto_pad="explicit" />
			<input>
				<port id="0" precision="FP32">
					<dim>-1</dim>
					<dim>384</dim>
					<dim>54</dim>
					<dim>54</dim>
				</port>
				<port id="1" precision="FP32">
					<dim>64</dim>
					<dim>384</dim>
					<dim>1</dim>
					<dim>1</dim>
				</port>
			</input>
			<output>
				<port id="2" precision="FP32">
					<dim>-1</dim>
					<dim>64</dim>
					<dim>54</dim>
					<dim>54</dim>
				</port>
			</output>
		</layer>
		<layer id="155" name="Reshape_1161" type="Const" version="opset1">
			<data element_type="f32" shape="1, 64, 1, 1" offset="942688" size="256" />
			<output>
				<port id="0" precision="FP32">
					<dim>1</dim>
					<dim>64</dim>
					<dim>1</dim>
					<dim>1</dim>
				</port>
			</output>
		</layer>
		<layer id="156" name="/backbone/stage4/unit4/conv3/conv/Conv" type="Add" version="opset1">
			<data auto_broadcast="numpy" />
			<input>
				<port id="0" precision="FP32">
					<dim>-1</dim>
					<dim>64</dim>
					<dim>54</dim>
					<dim>54</dim>
				</port>
				<port id="1" precision="FP32">
					<dim>1</dim>
					<dim>64</dim>
					<dim>1</dim>
					<dim>1</dim>
				</port>
			</input>
			<output>
				<port id="2" precision="FP32" names="/backbone/stage4/unit4/conv3/conv/Conv_output_0">
					<dim>-1</dim>
					<dim>64</dim>
					<dim>54</dim>
					<dim>54</dim>
				</port>
			</output>
		</layer>
		<layer id="157" name="/backbone/stage4/unit4/Add" type="Add" version="opset1">
			<data auto_broadcast="numpy" />
			<input>
				<port id="0" precision="FP32">
					<dim>-1</dim>
					<dim>64</dim>
					<dim>54</dim>
					<dim>54</dim>
				</port>
				<port id="1" precision="FP32">
					<dim>-1</dim>
					<dim>64</dim>
					<dim>54</dim>
					<dim>54</dim>
				</port>
			</input>
			<output>
				<port id="2" precision="FP32" names="/backbone/stage4/unit4/Add_output_0">
					<dim>-1</dim>
					<dim>64</dim>
					<dim>54</dim>
					<dim>54</dim>
				</port>
			</output>
		</layer>
		<layer id="158" name="onnx::Conv_1141" type="Const" version="opset1">
			<data element_type="f32" shape="384, 64, 1, 1" offset="942944" size="98304" />
			<output>
				<port id="0" precision="FP32" names="onnx::Conv_1141">
					<dim>384</dim>
					<dim>64</dim>
					<dim>1</dim>
					<dim>1</dim>
				</port>
			</output>
		</layer>
		<layer id="159" name="/backbone/stage4/unit5/conv1/conv/Conv/WithoutBiases" type="Convolution" version="opset1">
			<data strides="1, 1" dilations="1, 1" pads_begin="0, 0" pads_end="0, 0" auto_pad="explicit" />
			<input>
				<port id="0" precision="FP32">
					<dim>-1</dim>
					<dim>64</dim>
					<dim>54</dim>
					<dim>54</dim>
				</port>
				<port id="1" precision="FP32">
					<dim>384</dim>
					<dim>64</dim>
					<dim>1</dim>
					<dim>1</dim>
				</port>
			</input>
			<output>
				<port id="2" precision="FP32">
					<dim>-1</dim>
					<dim>384</dim>
					<dim>54</dim>
					<dim>54</dim>
				</port>
			</output>
		</layer>
		<layer id="160" name="Reshape_1177" type="Const" version="opset1">
			<data element_type="f32" shape="1, 384, 1, 1" offset="1041248" size="1536" />
			<output>
				<port id="0" precision="FP32">
					<dim>1</dim>
					<dim>384</dim>
					<dim>1</dim>
					<dim>1</dim>
				</port>
			</output>
		</layer>
		<layer id="161" name="/backbone/stage4/unit5/conv1/conv/Conv" type="Add" version="opset1">
			<data auto_broadcast="numpy" />
			<input>
				<port id="0" precision="FP32">
					<dim>-1</dim>
					<dim>384</dim>
					<dim>54</dim>
					<dim>54</dim>
				</port>
				<port id="1" precision="FP32">
					<dim>1</dim>
					<dim>384</dim>
					<dim>1</dim>
					<dim>1</dim>
				</port>
			</input>
			<output>
				<port id="2" precision="FP32" names="/backbone/stage4/unit5/conv1/conv/Conv_output_0">
					<dim>-1</dim>
					<dim>384</dim>
					<dim>54</dim>
					<dim>54</dim>
				</port>
			</output>
		</layer>
		<layer id="162" name="/backbone/stage4/unit5/conv1/activ/Clip" type="Clamp" version="opset1">
			<data min="0" max="6" />
			<input>
				<port id="0" precision="FP32">
					<dim>-1</dim>
					<dim>384</dim>
					<dim>54</dim>
					<dim>54</dim>
				</port>
			</input>
			<output>
				<port id="1" precision="FP32" names="/backbone/stage4/unit5/conv1/activ/Clip_output_0">
					<dim>-1</dim>
					<dim>384</dim>
					<dim>54</dim>
					<dim>54</dim>
				</port>
			</output>
		</layer>
		<layer id="163" name="Reshape_1192" type="Const" version="opset1">
			<data element_type="f32" shape="384, 1, 1, 3, 3" offset="1042784" size="13824" />
			<output>
				<port id="0" precision="FP32">
					<dim>384</dim>
					<dim>1</dim>
					<dim>1</dim>
					<dim>3</dim>
					<dim>3</dim>
				</port>
			</output>
		</layer>
		<layer id="164" name="/backbone/stage4/unit5/conv2/conv/Conv/WithoutBiases" type="GroupConvolution" version="opset1">
			<data strides="1, 1" pads_begin="1, 1" pads_end="1, 1" dilations="1, 1" auto_pad="explicit" />
			<input>
				<port id="0" precision="FP32">
					<dim>-1</dim>
					<dim>384</dim>
					<dim>54</dim>
					<dim>54</dim>
				</port>
				<port id="1" precision="FP32">
					<dim>384</dim>
					<dim>1</dim>
					<dim>1</dim>
					<dim>3</dim>
					<dim>3</dim>
				</port>
			</input>
			<output>
				<port id="2" precision="FP32">
					<dim>-1</dim>
					<dim>384</dim>
					<dim>54</dim>
					<dim>54</dim>
				</port>
			</output>
		</layer>
		<layer id="165" name="Reshape_1244" type="Const" version="opset1">
			<data element_type="f32" shape="1, 384, 1, 1" offset="1056608" size="1536" />
			<output>
				<port id="0" precision="FP32">
					<dim>1</dim>
					<dim>384</dim>
					<dim>1</dim>
					<dim>1</dim>
				</port>
			</output>
		</layer>
		<layer id="166" name="/backbone/stage4/unit5/conv2/conv/Conv" type="Add" version="opset1">
			<data auto_broadcast="numpy" />
			<input>
				<port id="0" precision="FP32">
					<dim>-1</dim>
					<dim>384</dim>
					<dim>54</dim>
					<dim>54</dim>
				</port>
				<port id="1" precision="FP32">
					<dim>1</dim>
					<dim>384</dim>
					<dim>1</dim>
					<dim>1</dim>
				</port>
			</input>
			<output>
				<port id="2" precision="FP32" names="/backbone/stage4/unit5/conv2/conv/Conv_output_0">
					<dim>-1</dim>
					<dim>384</dim>
					<dim>54</dim>
					<dim>54</dim>
				</port>
			</output>
		</layer>
		<layer id="167" name="/backbone/stage4/unit5/conv2/activ/Clip" type="Clamp" version="opset1">
			<data min="0" max="6" />
			<input>
				<port id="0" precision="FP32">
					<dim>-1</dim>
					<dim>384</dim>
					<dim>54</dim>
					<dim>54</dim>
				</port>
			</input>
			<output>
				<port id="1" precision="FP32" names="/backbone/stage4/unit5/conv2/activ/Clip_output_0">
					<dim>-1</dim>
					<dim>384</dim>
					<dim>54</dim>
					<dim>54</dim>
				</port>
			</output>
		</layer>
		<layer id="168" name="onnx::Conv_1147" type="Const" version="opset1">
			<data element_type="f32" shape="96, 384, 1, 1" offset="1058144" size="147456" />
			<output>
				<port id="0" precision="FP32" names="onnx::Conv_1147">
					<dim>96</dim>
					<dim>384</dim>
					<dim>1</dim>
					<dim>1</dim>
				</port>
			</output>
		</layer>
		<layer id="169" name="/backbone/stage4/unit5/conv3/conv/Conv/WithoutBiases" type="Convolution" version="opset1">
			<data strides="1, 1" dilations="1, 1" pads_begin="0, 0" pads_end="0, 0" auto_pad="explicit" />
			<input>
				<port id="0" precision="FP32">
					<dim>-1</dim>
					<dim>384</dim>
					<dim>54</dim>
					<dim>54</dim>
				</port>
				<port id="1" precision="FP32">
					<dim>96</dim>
					<dim>384</dim>
					<dim>1</dim>
					<dim>1</dim>
				</port>
			</input>
			<output>
				<port id="2" precision="FP32">
					<dim>-1</dim>
					<dim>96</dim>
					<dim>54</dim>
					<dim>54</dim>
				</port>
			</output>
		</layer>
		<layer id="170" name="Reshape_1263" type="Const" version="opset1">
			<data element_type="f32" shape="1, 96, 1, 1" offset="1205600" size="384" />
			<output>
				<port id="0" precision="FP32">
					<dim>1</dim>
					<dim>96</dim>
					<dim>1</dim>
					<dim>1</dim>
				</port>
			</output>
		</layer>
		<layer id="171" name="/backbone/stage4/unit5/conv3/conv/Conv" type="Add" version="opset1">
			<data auto_broadcast="numpy" />
			<input>
				<port id="0" precision="FP32">
					<dim>-1</dim>
					<dim>96</dim>
					<dim>54</dim>
					<dim>54</dim>
				</port>
				<port id="1" precision="FP32">
					<dim>1</dim>
					<dim>96</dim>
					<dim>1</dim>
					<dim>1</dim>
				</port>
			</input>
			<output>
				<port id="2" precision="FP32" names="/backbone/stage4/unit5/conv3/conv/Conv_output_0">
					<dim>-1</dim>
					<dim>96</dim>
					<dim>54</dim>
					<dim>54</dim>
				</port>
			</output>
		</layer>
		<layer id="172" name="onnx::Conv_1150" type="Const" version="opset1">
			<data element_type="f32" shape="576, 96, 1, 1" offset="1205984" size="221184" />
			<output>
				<port id="0" precision="FP32" names="onnx::Conv_1150">
					<dim>576</dim>
					<dim>96</dim>
					<dim>1</dim>
					<dim>1</dim>
				</port>
			</output>
		</layer>
		<layer id="173" name="/backbone/stage4/unit6/conv1/conv/Conv/WithoutBiases" type="Convolution" version="opset1">
			<data strides="1, 1" dilations="1, 1" pads_begin="0, 0" pads_end="0, 0" auto_pad="explicit" />
			<input>
				<port id="0" precision="FP32">
					<dim>-1</dim>
					<dim>96</dim>
					<dim>54</dim>
					<dim>54</dim>
				</port>
				<port id="1" precision="FP32">
					<dim>576</dim>
					<dim>96</dim>
					<dim>1</dim>
					<dim>1</dim>
				</port>
			</input>
			<output>
				<port id="2" precision="FP32">
					<dim>-1</dim>
					<dim>576</dim>
					<dim>54</dim>
					<dim>54</dim>
				</port>
			</output>
		</layer>
		<layer id="174" name="Reshape_1278" type="Const" version="opset1">
			<data element_type="f32" shape="1, 576, 1, 1" offset="1427168" size="2304" />
			<output>
				<port id="0" precision="FP32">
					<dim>1</dim>
					<dim>576</dim>
					<dim>1</dim>
					<dim>1</dim>
				</port>
			</output>
		</layer>
		<layer id="175" name="/backbone/stage4/unit6/conv1/conv/Conv" type="Add" version="opset1">
			<data auto_broadcast="numpy" />
			<input>
				<port id="0" precision="FP32">
					<dim>-1</dim>
					<dim>576</dim>
					<dim>54</dim>
					<dim>54</dim>
				</port>
				<port id="1" precision="FP32">
					<dim>1</dim>
					<dim>576</dim>
					<dim>1</dim>
					<dim>1</dim>
				</port>
			</input>
			<output>
				<port id="2" precision="FP32" names="/backbone/stage4/unit6/conv1/conv/Conv_output_0">
					<dim>-1</dim>
					<dim>576</dim>
					<dim>54</dim>
					<dim>54</dim>
				</port>
			</output>
		</layer>
		<layer id="176" name="/backbone/stage4/unit6/conv1/activ/Clip" type="Clamp" version="opset1">
			<data min="0" max="6" />
			<input>
				<port id="0" precision="FP32">
					<dim>-1</dim>
					<dim>576</dim>
					<dim>54</dim>
					<dim>54</dim>
				</port>
			</input>
			<output>
				<port id="1" precision="FP32" names="/backbone/stage4/unit6/conv1/activ/Clip_output_0">
					<dim>-1</dim>
					<dim>576</dim>
					<dim>54</dim>
					<dim>54</dim>
				</port>
			</output>
		</layer>
		<layer id="177" name="Reshape_1293" type="Const" version="opset1">
			<data element_type="f32" shape="576, 1, 1, 3, 3" offset="1429472" size="20736" />
			<output>
				<port id="0" precision="FP32">
					<dim>576</dim>
					<dim>1</dim>
					<dim>1</dim>
					<dim>3</dim>
					<dim>3</dim>
				</port>
			</output>
		</layer>
		<layer id="178" name="/backbone/stage4/unit6/conv2/conv/Conv/WithoutBiases" type="GroupConvolution" version="opset1">
			<data strides="1, 1" pads_begin="1, 1" pads_end="1, 1" dilations="1, 1" auto_pad="explicit" />
			<input>
				<port id="0" precision="FP32">
					<dim>-1</dim>
					<dim>576</dim>
					<dim>54</dim>
					<dim>54</dim>
				</port>
				<port id="1" precision="FP32">
					<dim>576</dim>
					<dim>1</dim>
					<dim>1</dim>
					<dim>3</dim>
					<dim>3</dim>
				</port>
			</input>
			<output>
				<port id="2" precision="FP32">
					<dim>-1</dim>
					<dim>576</dim>
					<dim>54</dim>
					<dim>54</dim>
				</port>
			</output>
		</layer>
		<layer id="179" name="Reshape_1345" type="Const" version="opset1">
			<data element_type="f32" shape="1, 576, 1, 1" offset="1450208" size="2304" />
			<output>
				<port id="0" precision="FP32">
					<dim>1</dim>
					<dim>576</dim>
					<dim>1</dim>
					<dim>1</dim>
				</port>
			</output>
		</layer>
		<layer id="180" name="/backbone/stage4/unit6/conv2/conv/Conv" type="Add" version="opset1">
			<data auto_broadcast="numpy" />
			<input>
				<port id="0" precision="FP32">
					<dim>-1</dim>
					<dim>576</dim>
					<dim>54</dim>
					<dim>54</dim>
				</port>
				<port id="1" precision="FP32">
					<dim>1</dim>
					<dim>576</dim>
					<dim>1</dim>
					<dim>1</dim>
				</port>
			</input>
			<output>
				<port id="2" precision="FP32" names="/backbone/stage4/unit6/conv2/conv/Conv_output_0">
					<dim>-1</dim>
					<dim>576</dim>
					<dim>54</dim>
					<dim>54</dim>
				</port>
			</output>
		</layer>
		<layer id="181" name="/backbone/stage4/unit6/conv2/activ/Clip" type="Clamp" version="opset1">
			<data min="0" max="6" />
			<input>
				<port id="0" precision="FP32">
					<dim>-1</dim>
					<dim>576</dim>
					<dim>54</dim>
					<dim>54</dim>
				</port>
			</input>
			<output>
				<port id="1" precision="FP32" names="/backbone/stage4/unit6/conv2/activ/Clip_output_0">
					<dim>-1</dim>
					<dim>576</dim>
					<dim>54</dim>
					<dim>54</dim>
				</port>
			</output>
		</layer>
		<layer id="182" name="onnx::Conv_1156" type="Const" version="opset1">
			<data element_type="f32" shape="96, 576, 1, 1" offset="1452512" size="221184" />
			<output>
				<port id="0" precision="FP32" names="onnx::Conv_1156">
					<dim>96</dim>
					<dim>576</dim>
					<dim>1</dim>
					<dim>1</dim>
				</port>
			</output>
		</layer>
		<layer id="183" name="/backbone/stage4/unit6/conv3/conv/Conv/WithoutBiases" type="Convolution" version="opset1">
			<data strides="1, 1" dilations="1, 1" pads_begin="0, 0" pads_end="0, 0" auto_pad="explicit" />
			<input>
				<port id="0" precision="FP32">
					<dim>-1</dim>
					<dim>576</dim>
					<dim>54</dim>
					<dim>54</dim>
				</port>
				<port id="1" precision="FP32">
					<dim>96</dim>
					<dim>576</dim>
					<dim>1</dim>
					<dim>1</dim>
				</port>
			</input>
			<output>
				<port id="2" precision="FP32">
					<dim>-1</dim>
					<dim>96</dim>
					<dim>54</dim>
					<dim>54</dim>
				</port>
			</output>
		</layer>
		<layer id="184" name="Reshape_1364" type="Const" version="opset1">
			<data element_type="f32" shape="1, 96, 1, 1" offset="1673696" size="384" />
			<output>
				<port id="0" precision="FP32">
					<dim>1</dim>
					<dim>96</dim>
					<dim>1</dim>
					<dim>1</dim>
				</port>
			</output>
		</layer>
		<layer id="185" name="/backbone/stage4/unit6/conv3/conv/Conv" type="Add" version="opset1">
			<data auto_broadcast="numpy" />
			<input>
				<port id="0" precision="FP32">
					<dim>-1</dim>
					<dim>96</dim>
					<dim>54</dim>
					<dim>54</dim>
				</port>
				<port id="1" precision="FP32">
					<dim>1</dim>
					<dim>96</dim>
					<dim>1</dim>
					<dim>1</dim>
				</port>
			</input>
			<output>
				<port id="2" precision="FP32" names="/backbone/stage4/unit6/conv3/conv/Conv_output_0">
					<dim>-1</dim>
					<dim>96</dim>
					<dim>54</dim>
					<dim>54</dim>
				</port>
			</output>
		</layer>
		<layer id="186" name="/backbone/stage4/unit6/Add" type="Add" version="opset1">
			<data auto_broadcast="numpy" />
			<input>
				<port id="0" precision="FP32">
					<dim>-1</dim>
					<dim>96</dim>
					<dim>54</dim>
					<dim>54</dim>
				</port>
				<port id="1" precision="FP32">
					<dim>-1</dim>
					<dim>96</dim>
					<dim>54</dim>
					<dim>54</dim>
				</port>
			</input>
			<output>
				<port id="2" precision="FP32" names="/backbone/stage4/unit6/Add_output_0">
					<dim>-1</dim>
					<dim>96</dim>
					<dim>54</dim>
					<dim>54</dim>
				</port>
			</output>
		</layer>
		<layer id="187" name="onnx::Conv_1159" type="Const" version="opset1">
			<data element_type="f32" shape="576, 96, 1, 1" offset="1674080" size="221184" />
			<output>
				<port id="0" precision="FP32" names="onnx::Conv_1159">
					<dim>576</dim>
					<dim>96</dim>
					<dim>1</dim>
					<dim>1</dim>
				</port>
			</output>
		</layer>
		<layer id="188" name="/backbone/stage4/unit7/conv1/conv/Conv/WithoutBiases" type="Convolution" version="opset1">
			<data strides="1, 1" dilations="1, 1" pads_begin="0, 0" pads_end="0, 0" auto_pad="explicit" />
			<input>
				<port id="0" precision="FP32">
					<dim>-1</dim>
					<dim>96</dim>
					<dim>54</dim>
					<dim>54</dim>
				</port>
				<port id="1" precision="FP32">
					<dim>576</dim>
					<dim>96</dim>
					<dim>1</dim>
					<dim>1</dim>
				</port>
			</input>
			<output>
				<port id="2" precision="FP32">
					<dim>-1</dim>
					<dim>576</dim>
					<dim>54</dim>
					<dim>54</dim>
				</port>
			</output>
		</layer>
		<layer id="189" name="Reshape_1380" type="Const" version="opset1">
			<data element_type="f32" shape="1, 576, 1, 1" offset="1895264" size="2304" />
			<output>
				<port id="0" precision="FP32">
					<dim>1</dim>
					<dim>576</dim>
					<dim>1</dim>
					<dim>1</dim>
				</port>
			</output>
		</layer>
		<layer id="190" name="/backbone/stage4/unit7/conv1/conv/Conv" type="Add" version="opset1">
			<data auto_broadcast="numpy" />
			<input>
				<port id="0" precision="FP32">
					<dim>-1</dim>
					<dim>576</dim>
					<dim>54</dim>
					<dim>54</dim>
				</port>
				<port id="1" precision="FP32">
					<dim>1</dim>
					<dim>576</dim>
					<dim>1</dim>
					<dim>1</dim>
				</port>
			</input>
			<output>
				<port id="2" precision="FP32" names="/backbone/stage4/unit7/conv1/conv/Conv_output_0">
					<dim>-1</dim>
					<dim>576</dim>
					<dim>54</dim>
					<dim>54</dim>
				</port>
			</output>
		</layer>
		<layer id="191" name="/backbone/stage4/unit7/conv1/activ/Clip" type="Clamp" version="opset1">
			<data min="0" max="6" />
			<input>
				<port id="0" precision="FP32">
					<dim>-1</dim>
					<dim>576</dim>
					<dim>54</dim>
					<dim>54</dim>
				</port>
			</input>
			<output>
				<port id="1" precision="FP32" names="/backbone/stage4/unit7/conv1/activ/Clip_output_0">
					<dim>-1</dim>
					<dim>576</dim>
					<dim>54</dim>
					<dim>54</dim>
				</port>
			</output>
		</layer>
		<layer id="192" name="Reshape_1395" type="Const" version="opset1">
			<data element_type="f32" shape="576, 1, 1, 3, 3" offset="1897568" size="20736" />
			<output>
				<port id="0" precision="FP32">
					<dim>576</dim>
					<dim>1</dim>
					<dim>1</dim>
					<dim>3</dim>
					<dim>3</dim>
				</port>
			</output>
		</layer>
		<layer id="193" name="/backbone/stage4/unit7/conv2/conv/Conv/WithoutBiases" type="GroupConvolution" version="opset1">
			<data strides="1, 1" pads_begin="1, 1" pads_end="1, 1" dilations="1, 1" auto_pad="explicit" />
			<input>
				<port id="0" precision="FP32">
					<dim>-1</dim>
					<dim>576</dim>
					<dim>54</dim>
					<dim>54</dim>
				</port>
				<port id="1" precision="FP32">
					<dim>576</dim>
					<dim>1</dim>
					<dim>1</dim>
					<dim>3</dim>
					<dim>3</dim>
				</port>
			</input>
			<output>
				<port id="2" precision="FP32">
					<dim>-1</dim>
					<dim>576</dim>
					<dim>54</dim>
					<dim>54</dim>
				</port>
			</output>
		</layer>
		<layer id="194" name="Reshape_1447" type="Const" version="opset1">
			<data element_type="f32" shape="1, 576, 1, 1" offset="1918304" size="2304" />
			<output>
				<port id="0" precision="FP32">
					<dim>1</dim>
					<dim>576</dim>
					<dim>1</dim>
					<dim>1</dim>
				</port>
			</output>
		</layer>
		<layer id="195" name="/backbone/stage4/unit7/conv2/conv/Conv" type="Add" version="opset1">
			<data auto_broadcast="numpy" />
			<input>
				<port id="0" precision="FP32">
					<dim>-1</dim>
					<dim>576</dim>
					<dim>54</dim>
					<dim>54</dim>
				</port>
				<port id="1" precision="FP32">
					<dim>1</dim>
					<dim>576</dim>
					<dim>1</dim>
					<dim>1</dim>
				</port>
			</input>
			<output>
				<port id="2" precision="FP32" names="/backbone/stage4/unit7/conv2/conv/Conv_output_0">
					<dim>-1</dim>
					<dim>576</dim>
					<dim>54</dim>
					<dim>54</dim>
				</port>
			</output>
		</layer>
		<layer id="196" name="/backbone/stage4/unit7/conv2/activ/Clip" type="Clamp" version="opset1">
			<data min="0" max="6" />
			<input>
				<port id="0" precision="FP32">
					<dim>-1</dim>
					<dim>576</dim>
					<dim>54</dim>
					<dim>54</dim>
				</port>
			</input>
			<output>
				<port id="1" precision="FP32" names="/backbone/stage4/unit7/conv2/activ/Clip_output_0">
					<dim>-1</dim>
					<dim>576</dim>
					<dim>54</dim>
					<dim>54</dim>
				</port>
			</output>
		</layer>
		<layer id="197" name="onnx::Conv_1165" type="Const" version="opset1">
			<data element_type="f32" shape="96, 576, 1, 1" offset="1920608" size="221184" />
			<output>
				<port id="0" precision="FP32" names="onnx::Conv_1165">
					<dim>96</dim>
					<dim>576</dim>
					<dim>1</dim>
					<dim>1</dim>
				</port>
			</output>
		</layer>
		<layer id="198" name="/backbone/stage4/unit7/conv3/conv/Conv/WithoutBiases" type="Convolution" version="opset1">
			<data strides="1, 1" dilations="1, 1" pads_begin="0, 0" pads_end="0, 0" auto_pad="explicit" />
			<input>
				<port id="0" precision="FP32">
					<dim>-1</dim>
					<dim>576</dim>
					<dim>54</dim>
					<dim>54</dim>
				</port>
				<port id="1" precision="FP32">
					<dim>96</dim>
					<dim>576</dim>
					<dim>1</dim>
					<dim>1</dim>
				</port>
			</input>
			<output>
				<port id="2" precision="FP32">
					<dim>-1</dim>
					<dim>96</dim>
					<dim>54</dim>
					<dim>54</dim>
				</port>
			</output>
		</layer>
		<layer id="199" name="Reshape_1466" type="Const" version="opset1">
			<data element_type="f32" shape="1, 96, 1, 1" offset="2141792" size="384" />
			<output>
				<port id="0" precision="FP32">
					<dim>1</dim>
					<dim>96</dim>
					<dim>1</dim>
					<dim>1</dim>
				</port>
			</output>
		</layer>
		<layer id="200" name="/backbone/stage4/unit7/conv3/conv/Conv" type="Add" version="opset1">
			<data auto_broadcast="numpy" />
			<input>
				<port id="0" precision="FP32">
					<dim>-1</dim>
					<dim>96</dim>
					<dim>54</dim>
					<dim>54</dim>
				</port>
				<port id="1" precision="FP32">
					<dim>1</dim>
					<dim>96</dim>
					<dim>1</dim>
					<dim>1</dim>
				</port>
			</input>
			<output>
				<port id="2" precision="FP32" names="/backbone/stage4/unit7/conv3/conv/Conv_output_0">
					<dim>-1</dim>
					<dim>96</dim>
					<dim>54</dim>
					<dim>54</dim>
				</port>
			</output>
		</layer>
		<layer id="201" name="/backbone/stage4/unit7/Add" type="Add" version="opset1">
			<data auto_broadcast="numpy" />
			<input>
				<port id="0" precision="FP32">
					<dim>-1</dim>
					<dim>96</dim>
					<dim>54</dim>
					<dim>54</dim>
				</port>
				<port id="1" precision="FP32">
					<dim>-1</dim>
					<dim>96</dim>
					<dim>54</dim>
					<dim>54</dim>
				</port>
			</input>
			<output>
				<port id="2" precision="FP32" names="/backbone/stage4/unit7/Add_output_0">
					<dim>-1</dim>
					<dim>96</dim>
					<dim>54</dim>
					<dim>54</dim>
				</port>
			</output>
		</layer>
		<layer id="202" name="Reshape_1884" type="Const" version="opset1">
			<data element_type="f32" shape="96, 1, 1, 3, 3" offset="2142176" size="3456" />
			<output>
				<port id="0" precision="FP32">
					<dim>96</dim>
					<dim>1</dim>
					<dim>1</dim>
					<dim>3</dim>
					<dim>3</dim>
				</port>
			</output>
		</layer>
		<layer id="203" name="/bbox_head/cls_convs.0/cls_convs.0.0/Conv/WithoutBiases" type="GroupConvolution" version="opset1">
			<data strides="1, 1" pads_begin="1, 1" pads_end="1, 1" dilations="1, 1" auto_pad="explicit" />
			<input>
				<port id="0" precision="FP32">
					<dim>-1</dim>
					<dim>96</dim>
					<dim>54</dim>
					<dim>54</dim>
				</port>
				<port id="1" precision="FP32">
					<dim>96</dim>
					<dim>1</dim>
					<dim>1</dim>
					<dim>3</dim>
					<dim>3</dim>
				</port>
			</input>
			<output>
				<port id="2" precision="FP32">
					<dim>-1</dim>
					<dim>96</dim>
					<dim>54</dim>
					<dim>54</dim>
				</port>
			</output>
		</layer>
		<layer id="204" name="Reshape_1936" type="Const" version="opset1">
			<data element_type="f32" shape="1, 96, 1, 1" offset="2145632" size="384" />
			<output>
				<port id="0" precision="FP32">
					<dim>1</dim>
					<dim>96</dim>
					<dim>1</dim>
					<dim>1</dim>
				</port>
			</output>
		</layer>
		<layer id="205" name="/bbox_head/cls_convs.0/cls_convs.0.0/Conv" type="Add" version="opset1">
			<data auto_broadcast="numpy" />
			<input>
				<port id="0" precision="FP32">
					<dim>-1</dim>
					<dim>96</dim>
					<dim>54</dim>
					<dim>54</dim>
				</port>
				<port id="1" precision="FP32">
					<dim>1</dim>
					<dim>96</dim>
					<dim>1</dim>
					<dim>1</dim>
				</port>
			</input>
			<output>
				<port id="2" precision="FP32" names="/bbox_head/cls_convs.0/cls_convs.0.0/Conv_output_0">
					<dim>-1</dim>
					<dim>96</dim>
					<dim>54</dim>
					<dim>54</dim>
				</port>
			</output>
		</layer>
		<layer id="206" name="/bbox_head/cls_convs.0/cls_convs.0.2/Relu" type="ReLU" version="opset1">
			<input>
				<port id="0" precision="FP32">
					<dim>-1</dim>
					<dim>96</dim>
					<dim>54</dim>
					<dim>54</dim>
				</port>
			</input>
			<output>
				<port id="1" precision="FP32" names="/bbox_head/cls_convs.0/cls_convs.0.2/Relu_output_0">
					<dim>-1</dim>
					<dim>96</dim>
					<dim>54</dim>
					<dim>54</dim>
				</port>
			</output>
		</layer>
		<layer id="207" name="bbox_head.cls_convs.0.3.weight" type="Const" version="opset1">
			<data element_type="f32" shape="16, 96, 1, 1" offset="2146016" size="6144" />
			<output>
				<port id="0" precision="FP32" names="bbox_head.cls_convs.0.3.weight">
					<dim>16</dim>
					<dim>96</dim>
					<dim>1</dim>
					<dim>1</dim>
				</port>
			</output>
		</layer>
		<layer id="208" name="/bbox_head/cls_convs.0/cls_convs.0.3/Conv/WithoutBiases" type="Convolution" version="opset1">
			<data strides="1, 1" dilations="1, 1" pads_begin="0, 0" pads_end="0, 0" auto_pad="explicit" />
			<input>
				<port id="0" precision="FP32">
					<dim>-1</dim>
					<dim>96</dim>
					<dim>54</dim>
					<dim>54</dim>
				</port>
				<port id="1" precision="FP32">
					<dim>16</dim>
					<dim>96</dim>
					<dim>1</dim>
					<dim>1</dim>
				</port>
			</input>
			<output>
				<port id="2" precision="FP32">
					<dim>-1</dim>
					<dim>16</dim>
					<dim>54</dim>
					<dim>54</dim>
				</port>
			</output>
		</layer>
		<layer id="209" name="Reshape_1952" type="Const" version="opset1">
			<data element_type="f32" shape="1, 16, 1, 1" offset="2152160" size="64" />
			<output>
				<port id="0" precision="FP32">
					<dim>1</dim>
					<dim>16</dim>
					<dim>1</dim>
					<dim>1</dim>
				</port>
			</output>
		</layer>
		<layer id="210" name="/bbox_head/cls_convs.0/cls_convs.0.3/Conv" type="Add" version="opset1">
			<data auto_broadcast="numpy" />
			<input>
				<port id="0" precision="FP32">
					<dim>-1</dim>
					<dim>16</dim>
					<dim>54</dim>
					<dim>54</dim>
				</port>
				<port id="1" precision="FP32">
					<dim>1</dim>
					<dim>16</dim>
					<dim>1</dim>
					<dim>1</dim>
				</port>
			</input>
			<output>
				<port id="2" precision="FP32" names="/bbox_head/cls_convs.0/cls_convs.0.3/Conv_output_0">
					<dim>-1</dim>
					<dim>16</dim>
					<dim>54</dim>
					<dim>54</dim>
				</port>
			</output>
		</layer>
		<layer id="211" name="/Shape_2" type="ShapeOf" version="opset3">
			<data output_type="i64" />
			<input>
				<port id="0" precision="FP32">
					<dim>-1</dim>
					<dim>16</dim>
					<dim>54</dim>
					<dim>54</dim>
				</port>
			</input>
			<output>
				<port id="1" precision="I64" names="/Shape_13_output_0,/Shape_1_output_0,/Shape_2_output_0">
					<dim>4</dim>
				</port>
			</output>
		</layer>
		<layer id="212" name="/Constant_8" type="Const" version="opset1">
			<data element_type="i64" shape="" offset="2152224" size="8" />
			<output>
				<port id="0" precision="I64" names="/Constant_8_output_0" />
			</output>
		</layer>
		<layer id="213" name="Constant_2199" type="Const" version="opset1">
			<data element_type="i64" shape="" offset="64" size="8" />
			<output>
				<port id="0" precision="I64" />
			</output>
		</layer>
		<layer id="214" name="/Gather_1" type="Gather" version="opset8">
			<data batch_dims="0" />
			<input>
				<port id="0" precision="I64">
					<dim>4</dim>
				</port>
				<port id="1" precision="I64" />
				<port id="2" precision="I64" />
			</input>
			<output>
				<port id="3" precision="I64" names="/Cast_output_0,/Gather_1_output_0" />
			</output>
		</layer>
		<layer id="215" name="/Constant_12" type="Const" version="opset1">
			<data element_type="i64" shape="" offset="2152232" size="8" />
			<output>
				<port id="0" precision="I64" names="/Constant_12_output_0" />
			</output>
		</layer>
		<layer id="216" name="/Range" type="Range" version="opset4">
			<data output_type="i64" />
			<input>
				<port id="0" precision="I64" />
				<port id="1" precision="I64" />
				<port id="2" precision="I64" />
			</input>
			<output>
				<port id="3" precision="I64" names="/Range_output_0">
					<dim>54</dim>
				</port>
			</output>
		</layer>
		<layer id="217" name="/Cast_1" type="Convert" version="opset1">
			<data destination_type="f32" />
			<input>
				<port id="0" precision="I64">
					<dim>54</dim>
				</port>
			</input>
			<output>
				<port id="1" precision="FP32" names="/Cast_1_output_0">
					<dim>54</dim>
				</port>
			</output>
		</layer>
		<layer id="218" name="Constant_22491" type="Const" version="opset1">
			<data element_type="f32" shape="1" offset="2152240" size="4" />
			<output>
				<port id="0" precision="FP32">
					<dim>1</dim>
				</port>
			</output>
		</layer>
		<layer id="219" name="/Mul" type="Multiply" version="opset1">
			<data auto_broadcast="numpy" />
			<input>
				<port id="0" precision="FP32">
					<dim>54</dim>
				</port>
				<port id="1" precision="FP32">
					<dim>1</dim>
				</port>
			</input>
			<output>
				<port id="2" precision="FP32" names="/Mul_output_0">
					<dim>54</dim>
				</port>
			</output>
		</layer>
		<layer id="220" name="/ConstantOfShape" type="Const" version="opset1">
			<data element_type="i64" shape="1" offset="2152232" size="8" />
			<output>
				<port id="0" precision="I64" names="/ConstantOfShape_output_0">
					<dim>1</dim>
				</port>
			</output>
		</layer>
		<layer id="221" name="/Expand" type="Broadcast" version="opset3">
			<data mode="bidirectional" />
			<input>
				<port id="0" precision="FP32">
					<dim>54</dim>
				</port>
				<port id="1" precision="I64">
					<dim>1</dim>
				</port>
			</input>
			<output>
				<port id="2" precision="FP32" names="/Expand_output_0">
					<dim>54</dim>
				</port>
			</output>
		</layer>
		<layer id="222" name="/Constant_14" type="Const" version="opset1">
			<data element_type="i64" shape="" offset="64" size="8" />
			<output>
				<port id="0" precision="I64" names="/Constant_14_output_0" />
			</output>
		</layer>
		<layer id="223" name="/Constant_7" type="Const" version="opset1">
			<data element_type="i64" shape="" offset="2152244" size="8" />
			<output>
				<port id="0" precision="I64" names="/Constant_7_output_0" />
			</output>
		</layer>
		<layer id="224" name="Constant_2195" type="Const" version="opset1">
			<data element_type="i64" shape="" offset="64" size="8" />
			<output>
				<port id="0" precision="I64" />
			</output>
		</layer>
		<layer id="225" name="/Gather" type="Gather" version="opset8">
			<data batch_dims="0" />
			<input>
				<port id="0" precision="I64">
					<dim>4</dim>
				</port>
				<port id="1" precision="I64" />
				<port id="2" precision="I64" />
			</input>
			<output>
				<port id="3" precision="I64" names="/Cast_2_output_0,/Gather_output_0" />
			</output>
		</layer>
		<layer id="226" name="/Constant_15" type="Const" version="opset1">
			<data element_type="i64" shape="" offset="2152232" size="8" />
			<output>
				<port id="0" precision="I64" names="/Constant_15_output_0" />
			</output>
		</layer>
		<layer id="227" name="/Range_1" type="Range" version="opset4">
			<data output_type="i64" />
			<input>
				<port id="0" precision="I64" />
				<port id="1" precision="I64" />
				<port id="2" precision="I64" />
			</input>
			<output>
				<port id="3" precision="I64" names="/Range_1_output_0">
					<dim>54</dim>
				</port>
			</output>
		</layer>
		<layer id="228" name="/Cast_3" type="Convert" version="opset1">
			<data destination_type="f32" />
			<input>
				<port id="0" precision="I64">
					<dim>54</dim>
				</port>
			</input>
			<output>
				<port id="1" precision="FP32" names="/Cast_3_output_0">
					<dim>54</dim>
				</port>
			</output>
		</layer>
		<layer id="229" name="Constant_22492" type="Const" version="opset1">
			<data element_type="f32" shape="1" offset="2152240" size="4" />
			<output>
				<port id="0" precision="FP32">
					<dim>1</dim>
				</port>
			</output>
		</layer>
		<layer id="230" name="/Mul_1" type="Multiply" version="opset1">
			<data auto_broadcast="numpy" />
			<input>
				<port id="0" precision="FP32">
					<dim>54</dim>
				</port>
				<port id="1" precision="FP32">
					<dim>1</dim>
				</port>
			</input>
			<output>
				<port id="2" precision="FP32" names="/Mul_1_output_0">
					<dim>54</dim>
				</port>
			</output>
		</layer>
		<layer id="231" name="/Shape_5" type="ShapeOf" version="opset3">
			<data output_type="i64" />
			<input>
				<port id="0" precision="FP32">
					<dim>54</dim>
				</port>
			</input>
			<output>
				<port id="1" precision="I64" names="/Concat_1_output_0,/Shape_5_output_0,/Unsqueeze_1_output_0">
					<dim>1</dim>
				</port>
			</output>
		</layer>
		<layer id="232" name="/Tile" type="Tile" version="opset1">
			<input>
				<port id="0" precision="FP32">
					<dim>54</dim>
				</port>
				<port id="1" precision="I64">
					<dim>1</dim>
				</port>
			</input>
			<output>
				<port id="2" precision="FP32" names="/Tile_output_0">
					<dim>2916</dim>
				</port>
			</output>
		</layer>
		<layer id="233" name="Constant_2320" type="Const" version="opset1">
			<data element_type="i64" shape="1" offset="2152252" size="8" />
			<output>
				<port id="0" precision="I64">
					<dim>1</dim>
				</port>
			</output>
		</layer>
		<layer id="234" name="/Unsqueeze_4" type="Unsqueeze" version="opset1">
			<input>
				<port id="0" precision="FP32">
					<dim>2916</dim>
				</port>
				<port id="1" precision="I64">
					<dim>1</dim>
				</port>
			</input>
			<output>
				<port id="2" precision="FP32" names="/Unsqueeze_4_output_0">
					<dim>2916</dim>
					<dim>1</dim>
				</port>
			</output>
		</layer>
		<layer id="235" name="/Constant_18" type="Const" version="opset1">
			<data element_type="i64" shape="2" offset="2152260" size="16" />
			<output>
				<port id="0" precision="I64" names="/Constant_18_output_0">
					<dim>2</dim>
				</port>
			</output>
		</layer>
		<layer id="236" name="/Reshape" type="Reshape" version="opset1">
			<data special_zero="true" />
			<input>
				<port id="0" precision="FP32">
					<dim>54</dim>
				</port>
				<port id="1" precision="I64">
					<dim>2</dim>
				</port>
			</input>
			<output>
				<port id="2" precision="FP32" names="/Reshape_output_0">
					<dim>54</dim>
					<dim>1</dim>
				</port>
			</output>
		</layer>
		<layer id="237" name="/ConstantOfShape_1" type="Const" version="opset1">
			<data element_type="i64" shape="2" offset="2152276" size="16" />
			<output>
				<port id="0" precision="I64" names="/ConstantOfShape_1_output_0">
					<dim>2</dim>
				</port>
			</output>
		</layer>
		<layer id="238" name="/Expand_1" type="Broadcast" version="opset3">
			<data mode="bidirectional" />
			<input>
				<port id="0" precision="FP32">
					<dim>54</dim>
					<dim>1</dim>
				</port>
				<port id="1" precision="I64">
					<dim>2</dim>
				</port>
			</input>
			<output>
				<port id="2" precision="FP32" names="/Expand_1_output_0">
					<dim>54</dim>
					<dim>1</dim>
				</port>
			</output>
		</layer>
		<layer id="239" name="/Constant_21" type="Const" version="opset1">
			<data element_type="i64" shape="1" offset="2152232" size="8" />
			<output>
				<port id="0" precision="I64" names="/Constant_21_output_0">
					<dim>1</dim>
				</port>
			</output>
		</layer>
		<layer id="240" name="/Shape_7" type="ShapeOf" version="opset3">
			<data output_type="i64" />
			<input>
				<port id="0" precision="FP32">
					<dim>54</dim>
				</port>
			</input>
			<output>
				<port id="1" precision="I64" names="/Shape_7_output_0,/Unsqueeze_3_output_0">
					<dim>1</dim>
				</port>
			</output>
		</layer>
		<layer id="241" name="/Concat_3" type="Concat" version="opset1">
			<data axis="0" />
			<input>
				<port id="0" precision="I64">
					<dim>1</dim>
				</port>
				<port id="1" precision="I64">
					<dim>1</dim>
				</port>
			</input>
			<output>
				<port id="2" precision="I64" names="/Concat_3_output_0">
					<dim>2</dim>
				</port>
			</output>
		</layer>
		<layer id="242" name="/Tile_1" type="Tile" version="opset1">
			<input>
				<port id="0" precision="FP32">
					<dim>54</dim>
					<dim>1</dim>
				</port>
				<port id="1" precision="I64">
					<dim>2</dim>
				</port>
			</input>
			<output>
				<port id="2" precision="FP32" names="/Tile_1_output_0">
					<dim>54</dim>
					<dim>54</dim>
				</port>
			</output>
		</layer>
		<layer id="243" name="Constant_12324" type="Const" version="opset1">
			<data element_type="i64" shape="1" offset="2152252" size="8" />
			<output>
				<port id="0" precision="I64">
					<dim>1</dim>
				</port>
			</output>
		</layer>
		<layer id="244" name="/Reshape_1" type="Reshape" version="opset1">
			<data special_zero="true" />
			<input>
				<port id="0" precision="FP32">
					<dim>54</dim>
					<dim>54</dim>
				</port>
				<port id="1" precision="I64">
					<dim>1</dim>
				</port>
			</input>
			<output>
				<port id="2" precision="FP32" names="/Reshape_1_output_0">
					<dim>2916</dim>
				</port>
			</output>
		</layer>
		<layer id="245" name="Constant_2322" type="Const" version="opset1">
			<data element_type="i64" shape="1" offset="2152252" size="8" />
			<output>
				<port id="0" precision="I64">
					<dim>1</dim>
				</port>
			</output>
		</layer>
		<layer id="246" name="/Unsqueeze_5" type="Unsqueeze" version="opset1">
			<input>
				<port id="0" precision="FP32">
					<dim>2916</dim>
				</port>
				<port id="1" precision="I64">
					<dim>1</dim>
				</port>
			</input>
			<output>
				<port id="2" precision="FP32" names="/Unsqueeze_5_output_0">
					<dim>2916</dim>
					<dim>1</dim>
				</port>
			</output>
		</layer>
		<layer id="247" name="Constant_2324" type="Const" version="opset1">
			<data element_type="i64" shape="1" offset="2152252" size="8" />
			<output>
				<port id="0" precision="I64">
					<dim>1</dim>
				</port>
			</output>
		</layer>
		<layer id="248" name="/Unsqueeze_6" type="Unsqueeze" version="opset1">
			<input>
				<port id="0" precision="FP32">
					<dim>2916</dim>
				</port>
				<port id="1" precision="I64">
					<dim>1</dim>
				</port>
			</input>
			<output>
				<port id="2" precision="FP32" names="/Unsqueeze_6_output_0">
					<dim>2916</dim>
					<dim>1</dim>
				</port>
			</output>
		</layer>
		<layer id="249" name="Constant_2326" type="Const" version="opset1">
			<data element_type="i64" shape="1" offset="2152252" size="8" />
			<output>
				<port id="0" precision="I64">
					<dim>1</dim>
				</port>
			</output>
		</layer>
		<layer id="250" name="/Unsqueeze_7" type="Unsqueeze" version="opset1">
			<input>
				<port id="0" precision="FP32">
					<dim>2916</dim>
				</port>
				<port id="1" precision="I64">
					<dim>1</dim>
				</port>
			</input>
			<output>
				<port id="2" precision="FP32" names="/Unsqueeze_7_output_0">
					<dim>2916</dim>
					<dim>1</dim>
				</port>
			</output>
		</layer>
		<layer id="251" name="/Concat_4" type="Concat" version="opset1">
			<data axis="-1" />
			<input>
				<port id="0" precision="FP32">
					<dim>2916</dim>
					<dim>1</dim>
				</port>
				<port id="1" precision="FP32">
					<dim>2916</dim>
					<dim>1</dim>
				</port>
				<port id="2" precision="FP32">
					<dim>2916</dim>
					<dim>1</dim>
				</port>
				<port id="3" precision="FP32">
					<dim>2916</dim>
					<dim>1</dim>
				</port>
			</input>
			<output>
				<port id="4" precision="FP32" names="/Concat_4_output_0">
					<dim>2916</dim>
					<dim>4</dim>
				</port>
			</output>
		</layer>
		<layer id="252" name="Constant_2329" type="Const" version="opset1">
			<data element_type="i64" shape="1" offset="2152232" size="8" />
			<output>
				<port id="0" precision="I64">
					<dim>1</dim>
				</port>
			</output>
		</layer>
		<layer id="253" name="/Unsqueeze_8" type="Unsqueeze" version="opset1">
			<input>
				<port id="0" precision="FP32">
					<dim>2916</dim>
					<dim>4</dim>
				</port>
				<port id="1" precision="I64">
					<dim>1</dim>
				</port>
			</input>
			<output>
				<port id="2" precision="FP32" names="/Unsqueeze_8_output_0">
					<dim>2916</dim>
					<dim>1</dim>
					<dim>4</dim>
				</port>
			</output>
		</layer>
		<layer id="254" name="/Add" type="Add" version="opset1">
			<data auto_broadcast="numpy" />
			<input>
				<port id="0" precision="FP32">
					<dim>1</dim>
					<dim>4</dim>
					<dim>4</dim>
				</port>
				<port id="1" precision="FP32">
					<dim>2916</dim>
					<dim>1</dim>
					<dim>4</dim>
				</port>
			</input>
			<output>
				<port id="2" precision="FP32" names="/Add_output_0">
					<dim>2916</dim>
					<dim>4</dim>
					<dim>4</dim>
				</port>
			</output>
		</layer>
		<layer id="255" name="/Constant_25" type="Const" version="opset1">
			<data element_type="i64" shape="2" offset="2152292" size="16" />
			<output>
				<port id="0" precision="I64" names="/Constant_25_output_0">
					<dim>2</dim>
				</port>
			</output>
		</layer>
		<layer id="256" name="/Reshape_2" type="Reshape" version="opset1">
			<data special_zero="true" />
			<input>
				<port id="0" precision="FP32">
					<dim>2916</dim>
					<dim>4</dim>
					<dim>4</dim>
				</port>
				<port id="1" precision="I64">
					<dim>2</dim>
				</port>
			</input>
			<output>
				<port id="2" precision="FP32" names="/Reshape_2_output_0">
					<dim>11664</dim>
					<dim>4</dim>
				</port>
			</output>
		</layer>
		<layer id="257" name="Constant_2464" type="Const" version="opset1">
			<data element_type="i64" shape="1" offset="64" size="8" />
			<output>
				<port id="0" precision="I64">
					<dim>1</dim>
				</port>
			</output>
		</layer>
		<layer id="258" name="/Unsqueeze_18" type="Unsqueeze" version="opset1">
			<input>
				<port id="0" precision="FP32">
					<dim>11664</dim>
					<dim>4</dim>
				</port>
				<port id="1" precision="I64">
					<dim>1</dim>
				</port>
			</input>
			<output>
				<port id="2" precision="FP32" names="/Unsqueeze_18_output_0">
					<dim>1</dim>
					<dim>11664</dim>
					<dim>4</dim>
				</port>
			</output>
		</layer>
		<layer id="259" name="/Constant_38" type="Const" version="opset1">
			<data element_type="f32" shape="1, 5, 4" offset="2152308" size="80" />
			<output>
				<port id="0" precision="FP32" names="/Constant_38_output_0">
					<dim>1</dim>
					<dim>5</dim>
					<dim>4</dim>
				</port>
			</output>
		</layer>
		<layer id="260" name="/Constant_26" type="Const" version="opset1">
			<data element_type="i64" shape="" offset="64" size="8" />
			<output>
				<port id="0" precision="I64" names="/Constant_26_output_0" />
			</output>
		</layer>
		<layer id="261" name="onnx::Conv_1168" type="Const" version="opset1">
			<data element_type="f32" shape="576, 96, 1, 1" offset="2152388" size="221184" />
			<output>
				<port id="0" precision="FP32" names="onnx::Conv_1168">
					<dim>576</dim>
					<dim>96</dim>
					<dim>1</dim>
					<dim>1</dim>
				</port>
			</output>
		</layer>
		<layer id="262" name="/backbone/stage5/unit1/conv1/conv/Conv/WithoutBiases" type="Convolution" version="opset1">
			<data strides="1, 1" dilations="1, 1" pads_begin="0, 0" pads_end="0, 0" auto_pad="explicit" />
			<input>
				<port id="0" precision="FP32">
					<dim>-1</dim>
					<dim>96</dim>
					<dim>54</dim>
					<dim>54</dim>
				</port>
				<port id="1" precision="FP32">
					<dim>576</dim>
					<dim>96</dim>
					<dim>1</dim>
					<dim>1</dim>
				</port>
			</input>
			<output>
				<port id="2" precision="FP32">
					<dim>-1</dim>
					<dim>576</dim>
					<dim>54</dim>
					<dim>54</dim>
				</port>
			</output>
		</layer>
		<layer id="263" name="Reshape_1482" type="Const" version="opset1">
			<data element_type="f32" shape="1, 576, 1, 1" offset="2373572" size="2304" />
			<output>
				<port id="0" precision="FP32">
					<dim>1</dim>
					<dim>576</dim>
					<dim>1</dim>
					<dim>1</dim>
				</port>
			</output>
		</layer>
		<layer id="264" name="/backbone/stage5/unit1/conv1/conv/Conv" type="Add" version="opset1">
			<data auto_broadcast="numpy" />
			<input>
				<port id="0" precision="FP32">
					<dim>-1</dim>
					<dim>576</dim>
					<dim>54</dim>
					<dim>54</dim>
				</port>
				<port id="1" precision="FP32">
					<dim>1</dim>
					<dim>576</dim>
					<dim>1</dim>
					<dim>1</dim>
				</port>
			</input>
			<output>
				<port id="2" precision="FP32" names="/backbone/stage5/unit1/conv1/conv/Conv_output_0">
					<dim>-1</dim>
					<dim>576</dim>
					<dim>54</dim>
					<dim>54</dim>
				</port>
			</output>
		</layer>
		<layer id="265" name="/backbone/stage5/unit1/conv1/activ/Clip" type="Clamp" version="opset1">
			<data min="0" max="6" />
			<input>
				<port id="0" precision="FP32">
					<dim>-1</dim>
					<dim>576</dim>
					<dim>54</dim>
					<dim>54</dim>
				</port>
			</input>
			<output>
				<port id="1" precision="FP32" names="/backbone/stage5/unit1/conv1/activ/Clip_output_0">
					<dim>-1</dim>
					<dim>576</dim>
					<dim>54</dim>
					<dim>54</dim>
				</port>
			</output>
		</layer>
		<layer id="266" name="Reshape_1497" type="Const" version="opset1">
			<data element_type="f32" shape="576, 1, 1, 3, 3" offset="2375876" size="20736" />
			<output>
				<port id="0" precision="FP32">
					<dim>576</dim>
					<dim>1</dim>
					<dim>1</dim>
					<dim>3</dim>
					<dim>3</dim>
				</port>
			</output>
		</layer>
		<layer id="267" name="/backbone/stage5/unit1/conv2/conv/Conv/WithoutBiases" type="GroupConvolution" version="opset1">
			<data strides="2, 2" pads_begin="1, 1" pads_end="1, 1" dilations="1, 1" auto_pad="explicit" />
			<input>
				<port id="0" precision="FP32">
					<dim>-1</dim>
					<dim>576</dim>
					<dim>54</dim>
					<dim>54</dim>
				</port>
				<port id="1" precision="FP32">
					<dim>576</dim>
					<dim>1</dim>
					<dim>1</dim>
					<dim>3</dim>
					<dim>3</dim>
				</port>
			</input>
			<output>
				<port id="2" precision="FP32">
					<dim>-1</dim>
					<dim>576</dim>
					<dim>27</dim>
					<dim>27</dim>
				</port>
			</output>
		</layer>
		<layer id="268" name="Reshape_1549" type="Const" version="opset1">
			<data element_type="f32" shape="1, 576, 1, 1" offset="2396612" size="2304" />
			<output>
				<port id="0" precision="FP32">
					<dim>1</dim>
					<dim>576</dim>
					<dim>1</dim>
					<dim>1</dim>
				</port>
			</output>
		</layer>
		<layer id="269" name="/backbone/stage5/unit1/conv2/conv/Conv" type="Add" version="opset1">
			<data auto_broadcast="numpy" />
			<input>
				<port id="0" precision="FP32">
					<dim>-1</dim>
					<dim>576</dim>
					<dim>27</dim>
					<dim>27</dim>
				</port>
				<port id="1" precision="FP32">
					<dim>1</dim>
					<dim>576</dim>
					<dim>1</dim>
					<dim>1</dim>
				</port>
			</input>
			<output>
				<port id="2" precision="FP32" names="/backbone/stage5/unit1/conv2/conv/Conv_output_0">
					<dim>-1</dim>
					<dim>576</dim>
					<dim>27</dim>
					<dim>27</dim>
				</port>
			</output>
		</layer>
		<layer id="270" name="/backbone/stage5/unit1/conv2/activ/Clip" type="Clamp" version="opset1">
			<data min="0" max="6" />
			<input>
				<port id="0" precision="FP32">
					<dim>-1</dim>
					<dim>576</dim>
					<dim>27</dim>
					<dim>27</dim>
				</port>
			</input>
			<output>
				<port id="1" precision="FP32" names="/backbone/stage5/unit1/conv2/activ/Clip_output_0">
					<dim>-1</dim>
					<dim>576</dim>
					<dim>27</dim>
					<dim>27</dim>
				</port>
			</output>
		</layer>
		<layer id="271" name="onnx::Conv_1174" type="Const" version="opset1">
			<data element_type="f32" shape="160, 576, 1, 1" offset="2398916" size="368640" />
			<output>
				<port id="0" precision="FP32" names="onnx::Conv_1174">
					<dim>160</dim>
					<dim>576</dim>
					<dim>1</dim>
					<dim>1</dim>
				</port>
			</output>
		</layer>
		<layer id="272" name="/backbone/stage5/unit1/conv3/conv/Conv/WithoutBiases" type="Convolution" version="opset1">
			<data strides="1, 1" dilations="1, 1" pads_begin="0, 0" pads_end="0, 0" auto_pad="explicit" />
			<input>
				<port id="0" precision="FP32">
					<dim>-1</dim>
					<dim>576</dim>
					<dim>27</dim>
					<dim>27</dim>
				</port>
				<port id="1" precision="FP32">
					<dim>160</dim>
					<dim>576</dim>
					<dim>1</dim>
					<dim>1</dim>
				</port>
			</input>
			<output>
				<port id="2" precision="FP32">
					<dim>-1</dim>
					<dim>160</dim>
					<dim>27</dim>
					<dim>27</dim>
				</port>
			</output>
		</layer>
		<layer id="273" name="Reshape_1568" type="Const" version="opset1">
			<data element_type="f32" shape="1, 160, 1, 1" offset="2767556" size="640" />
			<output>
				<port id="0" precision="FP32">
					<dim>1</dim>
					<dim>160</dim>
					<dim>1</dim>
					<dim>1</dim>
				</port>
			</output>
		</layer>
		<layer id="274" name="/backbone/stage5/unit1/conv3/conv/Conv" type="Add" version="opset1">
			<data auto_broadcast="numpy" />
			<input>
				<port id="0" precision="FP32">
					<dim>-1</dim>
					<dim>160</dim>
					<dim>27</dim>
					<dim>27</dim>
				</port>
				<port id="1" precision="FP32">
					<dim>1</dim>
					<dim>160</dim>
					<dim>1</dim>
					<dim>1</dim>
				</port>
			</input>
			<output>
				<port id="2" precision="FP32" names="/backbone/stage5/unit1/conv3/conv/Conv_output_0">
					<dim>-1</dim>
					<dim>160</dim>
					<dim>27</dim>
					<dim>27</dim>
				</port>
			</output>
		</layer>
		<layer id="275" name="onnx::Conv_1177" type="Const" version="opset1">
			<data element_type="f32" shape="960, 160, 1, 1" offset="2768196" size="614400" />
			<output>
				<port id="0" precision="FP32" names="onnx::Conv_1177">
					<dim>960</dim>
					<dim>160</dim>
					<dim>1</dim>
					<dim>1</dim>
				</port>
			</output>
		</layer>
		<layer id="276" name="/backbone/stage5/unit2/conv1/conv/Conv/WithoutBiases" type="Convolution" version="opset1">
			<data strides="1, 1" dilations="1, 1" pads_begin="0, 0" pads_end="0, 0" auto_pad="explicit" />
			<input>
				<port id="0" precision="FP32">
					<dim>-1</dim>
					<dim>160</dim>
					<dim>27</dim>
					<dim>27</dim>
				</port>
				<port id="1" precision="FP32">
					<dim>960</dim>
					<dim>160</dim>
					<dim>1</dim>
					<dim>1</dim>
				</port>
			</input>
			<output>
				<port id="2" precision="FP32">
					<dim>-1</dim>
					<dim>960</dim>
					<dim>27</dim>
					<dim>27</dim>
				</port>
			</output>
		</layer>
		<layer id="277" name="Reshape_1583" type="Const" version="opset1">
			<data element_type="f32" shape="1, 960, 1, 1" offset="3382596" size="3840" />
			<output>
				<port id="0" precision="FP32">
					<dim>1</dim>
					<dim>960</dim>
					<dim>1</dim>
					<dim>1</dim>
				</port>
			</output>
		</layer>
		<layer id="278" name="/backbone/stage5/unit2/conv1/conv/Conv" type="Add" version="opset1">
			<data auto_broadcast="numpy" />
			<input>
				<port id="0" precision="FP32">
					<dim>-1</dim>
					<dim>960</dim>
					<dim>27</dim>
					<dim>27</dim>
				</port>
				<port id="1" precision="FP32">
					<dim>1</dim>
					<dim>960</dim>
					<dim>1</dim>
					<dim>1</dim>
				</port>
			</input>
			<output>
				<port id="2" precision="FP32" names="/backbone/stage5/unit2/conv1/conv/Conv_output_0">
					<dim>-1</dim>
					<dim>960</dim>
					<dim>27</dim>
					<dim>27</dim>
				</port>
			</output>
		</layer>
		<layer id="279" name="/backbone/stage5/unit2/conv1/activ/Clip" type="Clamp" version="opset1">
			<data min="0" max="6" />
			<input>
				<port id="0" precision="FP32">
					<dim>-1</dim>
					<dim>960</dim>
					<dim>27</dim>
					<dim>27</dim>
				</port>
			</input>
			<output>
				<port id="1" precision="FP32" names="/backbone/stage5/unit2/conv1/activ/Clip_output_0">
					<dim>-1</dim>
					<dim>960</dim>
					<dim>27</dim>
					<dim>27</dim>
				</port>
			</output>
		</layer>
		<layer id="280" name="Reshape_1598" type="Const" version="opset1">
			<data element_type="f32" shape="960, 1, 1, 3, 3" offset="3386436" size="34560" />
			<output>
				<port id="0" precision="FP32">
					<dim>960</dim>
					<dim>1</dim>
					<dim>1</dim>
					<dim>3</dim>
					<dim>3</dim>
				</port>
			</output>
		</layer>
		<layer id="281" name="/backbone/stage5/unit2/conv2/conv/Conv/WithoutBiases" type="GroupConvolution" version="opset1">
			<data strides="1, 1" pads_begin="1, 1" pads_end="1, 1" dilations="1, 1" auto_pad="explicit" />
			<input>
				<port id="0" precision="FP32">
					<dim>-1</dim>
					<dim>960</dim>
					<dim>27</dim>
					<dim>27</dim>
				</port>
				<port id="1" precision="FP32">
					<dim>960</dim>
					<dim>1</dim>
					<dim>1</dim>
					<dim>3</dim>
					<dim>3</dim>
				</port>
			</input>
			<output>
				<port id="2" precision="FP32">
					<dim>-1</dim>
					<dim>960</dim>
					<dim>27</dim>
					<dim>27</dim>
				</port>
			</output>
		</layer>
		<layer id="282" name="Reshape_1650" type="Const" version="opset1">
			<data element_type="f32" shape="1, 960, 1, 1" offset="3420996" size="3840" />
			<output>
				<port id="0" precision="FP32">
					<dim>1</dim>
					<dim>960</dim>
					<dim>1</dim>
					<dim>1</dim>
				</port>
			</output>
		</layer>
		<layer id="283" name="/backbone/stage5/unit2/conv2/conv/Conv" type="Add" version="opset1">
			<data auto_broadcast="numpy" />
			<input>
				<port id="0" precision="FP32">
					<dim>-1</dim>
					<dim>960</dim>
					<dim>27</dim>
					<dim>27</dim>
				</port>
				<port id="1" precision="FP32">
					<dim>1</dim>
					<dim>960</dim>
					<dim>1</dim>
					<dim>1</dim>
				</port>
			</input>
			<output>
				<port id="2" precision="FP32" names="/backbone/stage5/unit2/conv2/conv/Conv_output_0">
					<dim>-1</dim>
					<dim>960</dim>
					<dim>27</dim>
					<dim>27</dim>
				</port>
			</output>
		</layer>
		<layer id="284" name="/backbone/stage5/unit2/conv2/activ/Clip" type="Clamp" version="opset1">
			<data min="0" max="6" />
			<input>
				<port id="0" precision="FP32">
					<dim>-1</dim>
					<dim>960</dim>
					<dim>27</dim>
					<dim>27</dim>
				</port>
			</input>
			<output>
				<port id="1" precision="FP32" names="/backbone/stage5/unit2/conv2/activ/Clip_output_0">
					<dim>-1</dim>
					<dim>960</dim>
					<dim>27</dim>
					<dim>27</dim>
				</port>
			</output>
		</layer>
		<layer id="285" name="onnx::Conv_1183" type="Const" version="opset1">
			<data element_type="f32" shape="160, 960, 1, 1" offset="3424836" size="614400" />
			<output>
				<port id="0" precision="FP32" names="onnx::Conv_1183">
					<dim>160</dim>
					<dim>960</dim>
					<dim>1</dim>
					<dim>1</dim>
				</port>
			</output>
		</layer>
		<layer id="286" name="/backbone/stage5/unit2/conv3/conv/Conv/WithoutBiases" type="Convolution" version="opset1">
			<data strides="1, 1" dilations="1, 1" pads_begin="0, 0" pads_end="0, 0" auto_pad="explicit" />
			<input>
				<port id="0" precision="FP32">
					<dim>-1</dim>
					<dim>960</dim>
					<dim>27</dim>
					<dim>27</dim>
				</port>
				<port id="1" precision="FP32">
					<dim>160</dim>
					<dim>960</dim>
					<dim>1</dim>
					<dim>1</dim>
				</port>
			</input>
			<output>
				<port id="2" precision="FP32">
					<dim>-1</dim>
					<dim>160</dim>
					<dim>27</dim>
					<dim>27</dim>
				</port>
			</output>
		</layer>
		<layer id="287" name="Reshape_1669" type="Const" version="opset1">
			<data element_type="f32" shape="1, 160, 1, 1" offset="4039236" size="640" />
			<output>
				<port id="0" precision="FP32">
					<dim>1</dim>
					<dim>160</dim>
					<dim>1</dim>
					<dim>1</dim>
				</port>
			</output>
		</layer>
		<layer id="288" name="/backbone/stage5/unit2/conv3/conv/Conv" type="Add" version="opset1">
			<data auto_broadcast="numpy" />
			<input>
				<port id="0" precision="FP32">
					<dim>-1</dim>
					<dim>160</dim>
					<dim>27</dim>
					<dim>27</dim>
				</port>
				<port id="1" precision="FP32">
					<dim>1</dim>
					<dim>160</dim>
					<dim>1</dim>
					<dim>1</dim>
				</port>
			</input>
			<output>
				<port id="2" precision="FP32" names="/backbone/stage5/unit2/conv3/conv/Conv_output_0">
					<dim>-1</dim>
					<dim>160</dim>
					<dim>27</dim>
					<dim>27</dim>
				</port>
			</output>
		</layer>
		<layer id="289" name="/backbone/stage5/unit2/Add" type="Add" version="opset1">
			<data auto_broadcast="numpy" />
			<input>
				<port id="0" precision="FP32">
					<dim>-1</dim>
					<dim>160</dim>
					<dim>27</dim>
					<dim>27</dim>
				</port>
				<port id="1" precision="FP32">
					<dim>-1</dim>
					<dim>160</dim>
					<dim>27</dim>
					<dim>27</dim>
				</port>
			</input>
			<output>
				<port id="2" precision="FP32" names="/backbone/stage5/unit2/Add_output_0">
					<dim>-1</dim>
					<dim>160</dim>
					<dim>27</dim>
					<dim>27</dim>
				</port>
			</output>
		</layer>
		<layer id="290" name="onnx::Conv_1186" type="Const" version="opset1">
			<data element_type="f32" shape="960, 160, 1, 1" offset="4039876" size="614400" />
			<output>
				<port id="0" precision="FP32" names="onnx::Conv_1186">
					<dim>960</dim>
					<dim>160</dim>
					<dim>1</dim>
					<dim>1</dim>
				</port>
			</output>
		</layer>
		<layer id="291" name="/backbone/stage5/unit3/conv1/conv/Conv/WithoutBiases" type="Convolution" version="opset1">
			<data strides="1, 1" dilations="1, 1" pads_begin="0, 0" pads_end="0, 0" auto_pad="explicit" />
			<input>
				<port id="0" precision="FP32">
					<dim>-1</dim>
					<dim>160</dim>
					<dim>27</dim>
					<dim>27</dim>
				</port>
				<port id="1" precision="FP32">
					<dim>960</dim>
					<dim>160</dim>
					<dim>1</dim>
					<dim>1</dim>
				</port>
			</input>
			<output>
				<port id="2" precision="FP32">
					<dim>-1</dim>
					<dim>960</dim>
					<dim>27</dim>
					<dim>27</dim>
				</port>
			</output>
		</layer>
		<layer id="292" name="Reshape_1685" type="Const" version="opset1">
			<data element_type="f32" shape="1, 960, 1, 1" offset="4654276" size="3840" />
			<output>
				<port id="0" precision="FP32">
					<dim>1</dim>
					<dim>960</dim>
					<dim>1</dim>
					<dim>1</dim>
				</port>
			</output>
		</layer>
		<layer id="293" name="/backbone/stage5/unit3/conv1/conv/Conv" type="Add" version="opset1">
			<data auto_broadcast="numpy" />
			<input>
				<port id="0" precision="FP32">
					<dim>-1</dim>
					<dim>960</dim>
					<dim>27</dim>
					<dim>27</dim>
				</port>
				<port id="1" precision="FP32">
					<dim>1</dim>
					<dim>960</dim>
					<dim>1</dim>
					<dim>1</dim>
				</port>
			</input>
			<output>
				<port id="2" precision="FP32" names="/backbone/stage5/unit3/conv1/conv/Conv_output_0">
					<dim>-1</dim>
					<dim>960</dim>
					<dim>27</dim>
					<dim>27</dim>
				</port>
			</output>
		</layer>
		<layer id="294" name="/backbone/stage5/unit3/conv1/activ/Clip" type="Clamp" version="opset1">
			<data min="0" max="6" />
			<input>
				<port id="0" precision="FP32">
					<dim>-1</dim>
					<dim>960</dim>
					<dim>27</dim>
					<dim>27</dim>
				</port>
			</input>
			<output>
				<port id="1" precision="FP32" names="/backbone/stage5/unit3/conv1/activ/Clip_output_0">
					<dim>-1</dim>
					<dim>960</dim>
					<dim>27</dim>
					<dim>27</dim>
				</port>
			</output>
		</layer>
		<layer id="295" name="Reshape_1700" type="Const" version="opset1">
			<data element_type="f32" shape="960, 1, 1, 3, 3" offset="4658116" size="34560" />
			<output>
				<port id="0" precision="FP32">
					<dim>960</dim>
					<dim>1</dim>
					<dim>1</dim>
					<dim>3</dim>
					<dim>3</dim>
				</port>
			</output>
		</layer>
		<layer id="296" name="/backbone/stage5/unit3/conv2/conv/Conv/WithoutBiases" type="GroupConvolution" version="opset1">
			<data strides="1, 1" pads_begin="1, 1" pads_end="1, 1" dilations="1, 1" auto_pad="explicit" />
			<input>
				<port id="0" precision="FP32">
					<dim>-1</dim>
					<dim>960</dim>
					<dim>27</dim>
					<dim>27</dim>
				</port>
				<port id="1" precision="FP32">
					<dim>960</dim>
					<dim>1</dim>
					<dim>1</dim>
					<dim>3</dim>
					<dim>3</dim>
				</port>
			</input>
			<output>
				<port id="2" precision="FP32">
					<dim>-1</dim>
					<dim>960</dim>
					<dim>27</dim>
					<dim>27</dim>
				</port>
			</output>
		</layer>
		<layer id="297" name="Reshape_1752" type="Const" version="opset1">
			<data element_type="f32" shape="1, 960, 1, 1" offset="4692676" size="3840" />
			<output>
				<port id="0" precision="FP32">
					<dim>1</dim>
					<dim>960</dim>
					<dim>1</dim>
					<dim>1</dim>
				</port>
			</output>
		</layer>
		<layer id="298" name="/backbone/stage5/unit3/conv2/conv/Conv" type="Add" version="opset1">
			<data auto_broadcast="numpy" />
			<input>
				<port id="0" precision="FP32">
					<dim>-1</dim>
					<dim>960</dim>
					<dim>27</dim>
					<dim>27</dim>
				</port>
				<port id="1" precision="FP32">
					<dim>1</dim>
					<dim>960</dim>
					<dim>1</dim>
					<dim>1</dim>
				</port>
			</input>
			<output>
				<port id="2" precision="FP32" names="/backbone/stage5/unit3/conv2/conv/Conv_output_0">
					<dim>-1</dim>
					<dim>960</dim>
					<dim>27</dim>
					<dim>27</dim>
				</port>
			</output>
		</layer>
		<layer id="299" name="/backbone/stage5/unit3/conv2/activ/Clip" type="Clamp" version="opset1">
			<data min="0" max="6" />
			<input>
				<port id="0" precision="FP32">
					<dim>-1</dim>
					<dim>960</dim>
					<dim>27</dim>
					<dim>27</dim>
				</port>
			</input>
			<output>
				<port id="1" precision="FP32" names="/backbone/stage5/unit3/conv2/activ/Clip_output_0">
					<dim>-1</dim>
					<dim>960</dim>
					<dim>27</dim>
					<dim>27</dim>
				</port>
			</output>
		</layer>
		<layer id="300" name="onnx::Conv_1192" type="Const" version="opset1">
			<data element_type="f32" shape="160, 960, 1, 1" offset="4696516" size="614400" />
			<output>
				<port id="0" precision="FP32" names="onnx::Conv_1192">
					<dim>160</dim>
					<dim>960</dim>
					<dim>1</dim>
					<dim>1</dim>
				</port>
			</output>
		</layer>
		<layer id="301" name="/backbone/stage5/unit3/conv3/conv/Conv/WithoutBiases" type="Convolution" version="opset1">
			<data strides="1, 1" dilations="1, 1" pads_begin="0, 0" pads_end="0, 0" auto_pad="explicit" />
			<input>
				<port id="0" precision="FP32">
					<dim>-1</dim>
					<dim>960</dim>
					<dim>27</dim>
					<dim>27</dim>
				</port>
				<port id="1" precision="FP32">
					<dim>160</dim>
					<dim>960</dim>
					<dim>1</dim>
					<dim>1</dim>
				</port>
			</input>
			<output>
				<port id="2" precision="FP32">
					<dim>-1</dim>
					<dim>160</dim>
					<dim>27</dim>
					<dim>27</dim>
				</port>
			</output>
		</layer>
		<layer id="302" name="Reshape_1771" type="Const" version="opset1">
			<data element_type="f32" shape="1, 160, 1, 1" offset="5310916" size="640" />
			<output>
				<port id="0" precision="FP32">
					<dim>1</dim>
					<dim>160</dim>
					<dim>1</dim>
					<dim>1</dim>
				</port>
			</output>
		</layer>
		<layer id="303" name="/backbone/stage5/unit3/conv3/conv/Conv" type="Add" version="opset1">
			<data auto_broadcast="numpy" />
			<input>
				<port id="0" precision="FP32">
					<dim>-1</dim>
					<dim>160</dim>
					<dim>27</dim>
					<dim>27</dim>
				</port>
				<port id="1" precision="FP32">
					<dim>1</dim>
					<dim>160</dim>
					<dim>1</dim>
					<dim>1</dim>
				</port>
			</input>
			<output>
				<port id="2" precision="FP32" names="/backbone/stage5/unit3/conv3/conv/Conv_output_0">
					<dim>-1</dim>
					<dim>160</dim>
					<dim>27</dim>
					<dim>27</dim>
				</port>
			</output>
		</layer>
		<layer id="304" name="/backbone/stage5/unit3/Add" type="Add" version="opset1">
			<data auto_broadcast="numpy" />
			<input>
				<port id="0" precision="FP32">
					<dim>-1</dim>
					<dim>160</dim>
					<dim>27</dim>
					<dim>27</dim>
				</port>
				<port id="1" precision="FP32">
					<dim>-1</dim>
					<dim>160</dim>
					<dim>27</dim>
					<dim>27</dim>
				</port>
			</input>
			<output>
				<port id="2" precision="FP32" names="/backbone/stage5/unit3/Add_output_0">
					<dim>-1</dim>
					<dim>160</dim>
					<dim>27</dim>
					<dim>27</dim>
				</port>
			</output>
		</layer>
		<layer id="305" name="onnx::Conv_1195" type="Const" version="opset1">
			<data element_type="f32" shape="960, 160, 1, 1" offset="5311556" size="614400" />
			<output>
				<port id="0" precision="FP32" names="onnx::Conv_1195">
					<dim>960</dim>
					<dim>160</dim>
					<dim>1</dim>
					<dim>1</dim>
				</port>
			</output>
		</layer>
		<layer id="306" name="/backbone/stage5/unit4/conv1/conv/Conv/WithoutBiases" type="Convolution" version="opset1">
			<data strides="1, 1" dilations="1, 1" pads_begin="0, 0" pads_end="0, 0" auto_pad="explicit" />
			<input>
				<port id="0" precision="FP32">
					<dim>-1</dim>
					<dim>160</dim>
					<dim>27</dim>
					<dim>27</dim>
				</port>
				<port id="1" precision="FP32">
					<dim>960</dim>
					<dim>160</dim>
					<dim>1</dim>
					<dim>1</dim>
				</port>
			</input>
			<output>
				<port id="2" precision="FP32">
					<dim>-1</dim>
					<dim>960</dim>
					<dim>27</dim>
					<dim>27</dim>
				</port>
			</output>
		</layer>
		<layer id="307" name="Reshape_1787" type="Const" version="opset1">
			<data element_type="f32" shape="1, 960, 1, 1" offset="5925956" size="3840" />
			<output>
				<port id="0" precision="FP32">
					<dim>1</dim>
					<dim>960</dim>
					<dim>1</dim>
					<dim>1</dim>
				</port>
			</output>
		</layer>
		<layer id="308" name="/backbone/stage5/unit4/conv1/conv/Conv" type="Add" version="opset1">
			<data auto_broadcast="numpy" />
			<input>
				<port id="0" precision="FP32">
					<dim>-1</dim>
					<dim>960</dim>
					<dim>27</dim>
					<dim>27</dim>
				</port>
				<port id="1" precision="FP32">
					<dim>1</dim>
					<dim>960</dim>
					<dim>1</dim>
					<dim>1</dim>
				</port>
			</input>
			<output>
				<port id="2" precision="FP32" names="/backbone/stage5/unit4/conv1/conv/Conv_output_0">
					<dim>-1</dim>
					<dim>960</dim>
					<dim>27</dim>
					<dim>27</dim>
				</port>
			</output>
		</layer>
		<layer id="309" name="/backbone/stage5/unit4/conv1/activ/Clip" type="Clamp" version="opset1">
			<data min="0" max="6" />
			<input>
				<port id="0" precision="FP32">
					<dim>-1</dim>
					<dim>960</dim>
					<dim>27</dim>
					<dim>27</dim>
				</port>
			</input>
			<output>
				<port id="1" precision="FP32" names="/backbone/stage5/unit4/conv1/activ/Clip_output_0">
					<dim>-1</dim>
					<dim>960</dim>
					<dim>27</dim>
					<dim>27</dim>
				</port>
			</output>
		</layer>
		<layer id="310" name="Reshape_1802" type="Const" version="opset1">
			<data element_type="f32" shape="960, 1, 1, 3, 3" offset="5929796" size="34560" />
			<output>
				<port id="0" precision="FP32">
					<dim>960</dim>
					<dim>1</dim>
					<dim>1</dim>
					<dim>3</dim>
					<dim>3</dim>
				</port>
			</output>
		</layer>
		<layer id="311" name="/backbone/stage5/unit4/conv2/conv/Conv/WithoutBiases" type="GroupConvolution" version="opset1">
			<data strides="1, 1" pads_begin="1, 1" pads_end="1, 1" dilations="1, 1" auto_pad="explicit" />
			<input>
				<port id="0" precision="FP32">
					<dim>-1</dim>
					<dim>960</dim>
					<dim>27</dim>
					<dim>27</dim>
				</port>
				<port id="1" precision="FP32">
					<dim>960</dim>
					<dim>1</dim>
					<dim>1</dim>
					<dim>3</dim>
					<dim>3</dim>
				</port>
			</input>
			<output>
				<port id="2" precision="FP32">
					<dim>-1</dim>
					<dim>960</dim>
					<dim>27</dim>
					<dim>27</dim>
				</port>
			</output>
		</layer>
		<layer id="312" name="Reshape_1854" type="Const" version="opset1">
			<data element_type="f32" shape="1, 960, 1, 1" offset="5964356" size="3840" />
			<output>
				<port id="0" precision="FP32">
					<dim>1</dim>
					<dim>960</dim>
					<dim>1</dim>
					<dim>1</dim>
				</port>
			</output>
		</layer>
		<layer id="313" name="/backbone/stage5/unit4/conv2/conv/Conv" type="Add" version="opset1">
			<data auto_broadcast="numpy" />
			<input>
				<port id="0" precision="FP32">
					<dim>-1</dim>
					<dim>960</dim>
					<dim>27</dim>
					<dim>27</dim>
				</port>
				<port id="1" precision="FP32">
					<dim>1</dim>
					<dim>960</dim>
					<dim>1</dim>
					<dim>1</dim>
				</port>
			</input>
			<output>
				<port id="2" precision="FP32" names="/backbone/stage5/unit4/conv2/conv/Conv_output_0">
					<dim>-1</dim>
					<dim>960</dim>
					<dim>27</dim>
					<dim>27</dim>
				</port>
			</output>
		</layer>
		<layer id="314" name="/backbone/stage5/unit4/conv2/activ/Clip" type="Clamp" version="opset1">
			<data min="0" max="6" />
			<input>
				<port id="0" precision="FP32">
					<dim>-1</dim>
					<dim>960</dim>
					<dim>27</dim>
					<dim>27</dim>
				</port>
			</input>
			<output>
				<port id="1" precision="FP32" names="/backbone/stage5/unit4/conv2/activ/Clip_output_0">
					<dim>-1</dim>
					<dim>960</dim>
					<dim>27</dim>
					<dim>27</dim>
				</port>
			</output>
		</layer>
		<layer id="315" name="onnx::Conv_1201" type="Const" version="opset1">
			<data element_type="f32" shape="320, 960, 1, 1" offset="5968196" size="1228800" />
			<output>
				<port id="0" precision="FP32" names="onnx::Conv_1201">
					<dim>320</dim>
					<dim>960</dim>
					<dim>1</dim>
					<dim>1</dim>
				</port>
			</output>
		</layer>
		<layer id="316" name="/backbone/stage5/unit4/conv3/conv/Conv/WithoutBiases" type="Convolution" version="opset1">
			<data strides="1, 1" dilations="1, 1" pads_begin="0, 0" pads_end="0, 0" auto_pad="explicit" />
			<input>
				<port id="0" precision="FP32">
					<dim>-1</dim>
					<dim>960</dim>
					<dim>27</dim>
					<dim>27</dim>
				</port>
				<port id="1" precision="FP32">
					<dim>320</dim>
					<dim>960</dim>
					<dim>1</dim>
					<dim>1</dim>
				</port>
			</input>
			<output>
				<port id="2" precision="FP32">
					<dim>-1</dim>
					<dim>320</dim>
					<dim>27</dim>
					<dim>27</dim>
				</port>
			</output>
		</layer>
		<layer id="317" name="Reshape_1873" type="Const" version="opset1">
			<data element_type="f32" shape="1, 320, 1, 1" offset="7196996" size="1280" />
			<output>
				<port id="0" precision="FP32">
					<dim>1</dim>
					<dim>320</dim>
					<dim>1</dim>
					<dim>1</dim>
				</port>
			</output>
		</layer>
		<layer id="318" name="/backbone/stage5/unit4/conv3/conv/Conv" type="Add" version="opset1">
			<data auto_broadcast="numpy" />
			<input>
				<port id="0" precision="FP32">
					<dim>-1</dim>
					<dim>320</dim>
					<dim>27</dim>
					<dim>27</dim>
				</port>
				<port id="1" precision="FP32">
					<dim>1</dim>
					<dim>320</dim>
					<dim>1</dim>
					<dim>1</dim>
				</port>
			</input>
			<output>
				<port id="2" precision="FP32" names="/backbone/stage5/unit4/conv3/conv/Conv_output_0">
					<dim>-1</dim>
					<dim>320</dim>
					<dim>27</dim>
					<dim>27</dim>
				</port>
			</output>
		</layer>
		<layer id="319" name="Reshape_2042" type="Const" version="opset1">
			<data element_type="f32" shape="320, 1, 1, 3, 3" offset="7198276" size="11520" />
			<output>
				<port id="0" precision="FP32">
					<dim>320</dim>
					<dim>1</dim>
					<dim>1</dim>
					<dim>3</dim>
					<dim>3</dim>
				</port>
			</output>
		</layer>
		<layer id="320" name="/bbox_head/cls_convs.1/cls_convs.1.0/Conv/WithoutBiases" type="GroupConvolution" version="opset1">
			<data strides="1, 1" pads_begin="1, 1" pads_end="1, 1" dilations="1, 1" auto_pad="explicit" />
			<input>
				<port id="0" precision="FP32">
					<dim>-1</dim>
					<dim>320</dim>
					<dim>27</dim>
					<dim>27</dim>
				</port>
				<port id="1" precision="FP32">
					<dim>320</dim>
					<dim>1</dim>
					<dim>1</dim>
					<dim>3</dim>
					<dim>3</dim>
				</port>
			</input>
			<output>
				<port id="2" precision="FP32">
					<dim>-1</dim>
					<dim>320</dim>
					<dim>27</dim>
					<dim>27</dim>
				</port>
			</output>
		</layer>
		<layer id="321" name="Reshape_2094" type="Const" version="opset1">
			<data element_type="f32" shape="1, 320, 1, 1" offset="7209796" size="1280" />
			<output>
				<port id="0" precision="FP32">
					<dim>1</dim>
					<dim>320</dim>
					<dim>1</dim>
					<dim>1</dim>
				</port>
			</output>
		</layer>
		<layer id="322" name="/bbox_head/cls_convs.1/cls_convs.1.0/Conv" type="Add" version="opset1">
			<data auto_broadcast="numpy" />
			<input>
				<port id="0" precision="FP32">
					<dim>-1</dim>
					<dim>320</dim>
					<dim>27</dim>
					<dim>27</dim>
				</port>
				<port id="1" precision="FP32">
					<dim>1</dim>
					<dim>320</dim>
					<dim>1</dim>
					<dim>1</dim>
				</port>
			</input>
			<output>
				<port id="2" precision="FP32" names="/bbox_head/cls_convs.1/cls_convs.1.0/Conv_output_0">
					<dim>-1</dim>
					<dim>320</dim>
					<dim>27</dim>
					<dim>27</dim>
				</port>
			</output>
		</layer>
		<layer id="323" name="/bbox_head/cls_convs.1/cls_convs.1.2/Relu" type="ReLU" version="opset1">
			<input>
				<port id="0" precision="FP32">
					<dim>-1</dim>
					<dim>320</dim>
					<dim>27</dim>
					<dim>27</dim>
				</port>
			</input>
			<output>
				<port id="1" precision="FP32" names="/bbox_head/cls_convs.1/cls_convs.1.2/Relu_output_0">
					<dim>-1</dim>
					<dim>320</dim>
					<dim>27</dim>
					<dim>27</dim>
				</port>
			</output>
		</layer>
		<layer id="324" name="bbox_head.cls_convs.1.3.weight" type="Const" version="opset1">
			<data element_type="f32" shape="20, 320, 1, 1" offset="7211076" size="25600" />
			<output>
				<port id="0" precision="FP32" names="bbox_head.cls_convs.1.3.weight">
					<dim>20</dim>
					<dim>320</dim>
					<dim>1</dim>
					<dim>1</dim>
				</port>
			</output>
		</layer>
		<layer id="325" name="/bbox_head/cls_convs.1/cls_convs.1.3/Conv/WithoutBiases" type="Convolution" version="opset1">
			<data strides="1, 1" dilations="1, 1" pads_begin="0, 0" pads_end="0, 0" auto_pad="explicit" />
			<input>
				<port id="0" precision="FP32">
					<dim>-1</dim>
					<dim>320</dim>
					<dim>27</dim>
					<dim>27</dim>
				</port>
				<port id="1" precision="FP32">
					<dim>20</dim>
					<dim>320</dim>
					<dim>1</dim>
					<dim>1</dim>
				</port>
			</input>
			<output>
				<port id="2" precision="FP32">
					<dim>-1</dim>
					<dim>20</dim>
					<dim>27</dim>
					<dim>27</dim>
				</port>
			</output>
		</layer>
		<layer id="326" name="Reshape_2110" type="Const" version="opset1">
			<data element_type="f32" shape="1, 20, 1, 1" offset="7236676" size="80" />
			<output>
				<port id="0" precision="FP32">
					<dim>1</dim>
					<dim>20</dim>
					<dim>1</dim>
					<dim>1</dim>
				</port>
			</output>
		</layer>
		<layer id="327" name="/bbox_head/cls_convs.1/cls_convs.1.3/Conv" type="Add" version="opset1">
			<data auto_broadcast="numpy" />
			<input>
				<port id="0" precision="FP32">
					<dim>-1</dim>
					<dim>20</dim>
					<dim>27</dim>
					<dim>27</dim>
				</port>
				<port id="1" precision="FP32">
					<dim>1</dim>
					<dim>20</dim>
					<dim>1</dim>
					<dim>1</dim>
				</port>
			</input>
			<output>
				<port id="2" precision="FP32" names="/bbox_head/cls_convs.1/cls_convs.1.3/Conv_output_0">
					<dim>-1</dim>
					<dim>20</dim>
					<dim>27</dim>
					<dim>27</dim>
				</port>
			</output>
		</layer>
		<layer id="328" name="/Shape_4" type="ShapeOf" version="opset3">
			<data output_type="i64" />
			<input>
				<port id="0" precision="FP32">
					<dim>-1</dim>
					<dim>20</dim>
					<dim>27</dim>
					<dim>27</dim>
				</port>
			</input>
			<output>
				<port id="1" precision="I64" names="/Shape_3_output_0,/Shape_4_output_0">
					<dim>4</dim>
				</port>
			</output>
		</layer>
		<layer id="329" name="/Constant_10" type="Const" version="opset1">
			<data element_type="i64" shape="" offset="2152224" size="8" />
			<output>
				<port id="0" precision="I64" names="/Constant_10_output_0" />
			</output>
		</layer>
		<layer id="330" name="Constant_2207" type="Const" version="opset1">
			<data element_type="i64" shape="" offset="64" size="8" />
			<output>
				<port id="0" precision="I64" />
			</output>
		</layer>
		<layer id="331" name="/Gather_3" type="Gather" version="opset8">
			<data batch_dims="0" />
			<input>
				<port id="0" precision="I64">
…
		<edge from-layer="176" from-port="1" to-layer="178" to-port="0" />
		<edge from-layer="177" from-port="0" to-layer="178" to-port="1" />
		<edge from-layer="178" from-port="2" to-layer="180" to-port="0" />
		<edge from-layer="179" from-port="0" to-layer="180" to-port="1" />
		<edge from-layer="180" from-port="2" to-layer="181" to-port="0" />
		<edge from-layer="181" from-port="1" to-layer="183" to-port="0" />
		<edge from-layer="182" from-port="0" to-layer="183" to-port="1" />
		<edge from-layer="183" from-port="2" to-layer="185" to-port="0" />
		<edge from-layer="184" from-port="0" to-layer="185" to-port="1" />
		<edge from-layer="185" from-port="2" to-layer="186" to-port="0" />
		<edge from-layer="186" from-port="2" to-layer="188" to-port="0" />
		<edge from-layer="186" from-port="2" to-layer="201" to-port="1" />
		<edge from-layer="187" from-port="0" to-layer="188" to-port="1" />
		<edge from-layer="188" from-port="2" to-layer="190" to-port="0" />
		<edge from-layer="189" from-port="0" to-layer="190" to-port="1" />
		<edge from-layer="190" from-port="2" to-layer="191" to-port="0" />
		<edge from-layer="191" from-port="1" to-layer="193" to-port="0" />
		<edge from-layer="192" from-port="0" to-layer="193" to-port="1" />
		<edge from-layer="193" from-port="2" to-layer="195" to-port="0" />
		<edge from-layer="194" from-port="0" to-layer="195" to-port="1" />
		<edge from-layer="195" from-port="2" to-layer="196" to-port="0" />
		<edge from-layer="196" from-port="1" to-layer="198" to-port="0" />
		<edge from-layer="197" from-port="0" to-layer="198" to-port="1" />
		<edge from-layer="198" from-port="2" to-layer="200" to-port="0" />
		<edge from-layer="199" from-port="0" to-layer="200" to-port="1" />
		<edge from-layer="200" from-port="2" to-layer="201" to-port="0" />
		<edge from-layer="201" from-port="2" to-layer="203" to-port="0" />
		<edge from-layer="201" from-port="2" to-layer="392" to-port="0" />
		<edge from-layer="201" from-port="2" to-layer="262" to-port="0" />
		<edge from-layer="202" from-port="0" to-layer="203" to-port="1" />
		<edge from-layer="203" from-port="2" to-layer="205" to-port="0" />
		<edge from-layer="204" from-port="0" to-layer="205" to-port="1" />
		<edge from-layer="205" from-port="2" to-layer="206" to-port="0" />
		<edge from-layer="206" from-port="1" to-layer="208" to-port="0" />
		<edge from-layer="207" from-port="0" to-layer="208" to-port="1" />
		<edge from-layer="208" from-port="2" to-layer="210" to-port="0" />
		<edge from-layer="209" from-port="0" to-layer="210" to-port="1" />
		<edge from-layer="210" from-port="2" to-layer="509" to-port="0" />
		<edge from-layer="210" from-port="2" to-layer="211" to-port="0" />
		<edge from-layer="211" from-port="1" to-layer="214" to-port="0" />
		<edge from-layer="211" from-port="1" to-layer="404" to-port="0" />
		<edge from-layer="211" from-port="1" to-layer="225" to-port="0" />
		<edge from-layer="211" from-port="1" to-layer="421" to-port="0" />
		<edge from-layer="211" from-port="1" to-layer="511" to-port="0" />
		<edge from-layer="211" from-port="1" to-layer="520" to-port="0" />
		<edge from-layer="212" from-port="0" to-layer="214" to-port="1" />
		<edge from-layer="213" from-port="0" to-layer="214" to-port="2" />
		<edge from-layer="214" from-port="3" to-layer="216" to-port="1" />
		<edge from-layer="215" from-port="0" to-layer="216" to-port="2" />
		<edge from-layer="216" from-port="3" to-layer="217" to-port="0" />
		<edge from-layer="217" from-port="1" to-layer="219" to-port="0" />
		<edge from-layer="218" from-port="0" to-layer="219" to-port="1" />
		<edge from-layer="219" from-port="2" to-layer="221" to-port="0" />
		<edge from-layer="219" from-port="2" to-layer="240" to-port="0" />
		<edge from-layer="220" from-port="0" to-layer="221" to-port="1" />
		<edge from-layer="221" from-port="2" to-layer="232" to-port="0" />
		<edge from-layer="222" from-port="0" to-layer="227" to-port="0" />
		<edge from-layer="223" from-port="0" to-layer="225" to-port="1" />
		<edge from-layer="224" from-port="0" to-layer="225" to-port="2" />
		<edge from-layer="225" from-port="3" to-layer="227" to-port="1" />
		<edge from-layer="226" from-port="0" to-layer="227" to-port="2" />
		<edge from-layer="227" from-port="3" to-layer="228" to-port="0" />
		<edge from-layer="228" from-port="1" to-layer="230" to-port="0" />
		<edge from-layer="229" from-port="0" to-layer="230" to-port="1" />
		<edge from-layer="230" from-port="2" to-layer="236" to-port="0" />
		<edge from-layer="230" from-port="2" to-layer="231" to-port="0" />
		<edge from-layer="231" from-port="1" to-layer="232" to-port="1" />
		<edge from-layer="232" from-port="2" to-layer="234" to-port="0" />
		<edge from-layer="232" from-port="2" to-layer="248" to-port="0" />
		<edge from-layer="233" from-port="0" to-layer="234" to-port="1" />
		<edge from-layer="234" from-port="2" to-layer="251" to-port="0" />
		<edge from-layer="235" from-port="0" to-layer="236" to-port="1" />
		<edge from-layer="236" from-port="2" to-layer="238" to-port="0" />
		<edge from-layer="237" from-port="0" to-layer="238" to-port="1" />
		<edge from-layer="238" from-port="2" to-layer="242" to-port="0" />
		<edge from-layer="239" from-port="0" to-layer="241" to-port="0" />
		<edge from-layer="240" from-port="1" to-layer="241" to-port="1" />
		<edge from-layer="241" from-port="2" to-layer="242" to-port="1" />
		<edge from-layer="242" from-port="2" to-layer="244" to-port="0" />
		<edge from-layer="243" from-port="0" to-layer="244" to-port="1" />
		<edge from-layer="244" from-port="2" to-layer="246" to-port="0" />
		<edge from-layer="244" from-port="2" to-layer="250" to-port="0" />
		<edge from-layer="245" from-port="0" to-layer="246" to-port="1" />
		<edge from-layer="246" from-port="2" to-layer="251" to-port="1" />
		<edge from-layer="247" from-port="0" to-layer="248" to-port="1" />
		<edge from-layer="248" from-port="2" to-layer="251" to-port="2" />
		<edge from-layer="249" from-port="0" to-layer="250" to-port="1" />
		<edge from-layer="250" from-port="2" to-layer="251" to-port="3" />
		<edge from-layer="251" from-port="4" to-layer="253" to-port="0" />
		<edge from-layer="252" from-port="0" to-layer="253" to-port="1" />
		<edge from-layer="253" from-port="2" to-layer="254" to-port="1" />
		<edge from-layer="254" from-port="2" to-layer="256" to-port="0" />
		<edge from-layer="255" from-port="0" to-layer="256" to-port="1" />
		<edge from-layer="256" from-port="2" to-layer="258" to-port="0" />
		<edge from-layer="257" from-port="0" to-layer="258" to-port="1" />
		<edge from-layer="258" from-port="2" to-layer="376" to-port="0" />
		<edge from-layer="259" from-port="0" to-layer="371" to-port="0" />
		<edge from-layer="260" from-port="0" to-layer="333" to-port="0" />
		<edge from-layer="261" from-port="0" to-layer="262" to-port="1" />
		<edge from-layer="262" from-port="2" to-layer="264" to-port="0" />
		<edge from-layer="263" from-port="0" to-layer="264" to-port="1" />
		<edge from-layer="264" from-port="2" to-layer="265" to-port="0" />
		<edge from-layer="265" from-port="1" to-layer="267" to-port="0" />
		<edge from-layer="266" from-port="0" to-layer="267" to-port="1" />
		<edge from-layer="267" from-port="2" to-layer="269" to-port="0" />
		<edge from-layer="268" from-port="0" to-layer="269" to-port="1" />
		<edge from-layer="269" from-port="2" to-layer="270" to-port="0" />
		<edge from-layer="270" from-port="1" to-layer="272" to-port="0" />
		<edge from-layer="271" from-port="0" to-layer="272" to-port="1" />
		<edge from-layer="272" from-port="2" to-layer="274" to-port="0" />
		<edge from-layer="273" from-port="0" to-layer="274" to-port="1" />
		<edge from-layer="274" from-port="2" to-layer="289" to-port="1" />
		<edge from-layer="274" from-port="2" to-layer="276" to-port="0" />
		<edge from-layer="275" from-port="0" to-layer="276" to-port="1" />
		<edge from-layer="276" from-port="2" to-layer="278" to-port="0" />
		<edge from-layer="277" from-port="0" to-layer="278" to-port="1" />
		<edge from-layer="278" from-port="2" to-layer="279" to-port="0" />
		<edge from-layer="279" from-port="1" to-layer="281" to-port="0" />
		<edge from-layer="280" from-port="0" to-layer="281" to-port="1" />
		<edge from-layer="281" from-port="2" to-layer="283" to-port="0" />
		<edge from-layer="282" from-port="0" to-layer="283" to-port="1" />
		<edge from-layer="283" from-port="2" to-layer="284" to-port="0" />
		<edge from-layer="284" from-port="1" to-layer="286" to-port="0" />
		<edge from-layer="285" from-port="0" to-layer="286" to-port="1" />
		<edge from-layer="286" from-port="2" to-layer="288" to-port="0" />
		<edge from-layer="287" from-port="0" to-layer="288" to-port="1" />
		<edge from-layer="288" from-port="2" to-layer="289" to-port="0" />
		<edge from-layer="289" from-port="2" to-layer="291" to-port="0" />
		<edge from-layer="289" from-port="2" to-layer="304" to-port="1" />
		<edge from-layer="290" from-port="0" to-layer="291" to-port="1" />
		<edge from-layer="291" from-port="2" to-layer="293" to-port="0" />
		<edge from-layer="292" from-port="0" to-layer="293" to-port="1" />
		<edge from-layer="293" from-port="2" to-layer="294" to-port="0" />
		<edge from-layer="294" from-port="1" to-layer="296" to-port="0" />
		<edge from-layer="295" from-port="0" to-layer="296" to-port="1" />
		<edge from-layer="296" from-port="2" to-layer="298" to-port="0" />
		<edge from-layer="297" from-port="0" to-layer="298" to-port="1" />
		<edge from-layer="298" from-port="2" to-layer="299" to-port="0" />
		<edge from-layer="299" from-port="1" to-layer="301" to-port="0" />
		<edge from-layer="300" from-port="0" to-layer="301" to-port="1" />
		<edge from-layer="301" from-port="2" to-layer="303" to-port="0" />
		<edge from-layer="302" from-port="0" to-layer="303" to-port="1" />
		<edge from-layer="303" from-port="2" to-layer="304" to-port="0" />
		<edge from-layer="304" from-port="2" to-layer="306" to-port="0" />
		<edge from-layer="305" from-port="0" to-layer="306" to-port="1" />
		<edge from-layer="306" from-port="2" to-layer="308" to-port="0" />
		<edge from-layer="307" from-port="0" to-layer="308" to-port="1" />
		<edge from-layer="308" from-port="2" to-layer="309" to-port="0" />
		<edge from-layer="309" from-port="1" to-layer="311" to-port="0" />
		<edge from-layer="310" from-port="0" to-layer="311" to-port="1" />
		<edge from-layer="311" from-port="2" to-layer="313" to-port="0" />
		<edge from-layer="312" from-port="0" to-layer="313" to-port="1" />
		<edge from-layer="313" from-port="2" to-layer="314" to-port="0" />
		<edge from-layer="314" from-port="1" to-layer="316" to-port="0" />
		<edge from-layer="315" from-port="0" to-layer="316" to-port="1" />
		<edge from-layer="316" from-port="2" to-layer="318" to-port="0" />
		<edge from-layer="317" from-port="0" to-layer="318" to-port="1" />
		<edge from-layer="318" from-port="2" to-layer="410" to-port="0" />
		<edge from-layer="318" from-port="2" to-layer="320" to-port="0" />
		<edge from-layer="319" from-port="0" to-layer="320" to-port="1" />
		<edge from-layer="320" from-port="2" to-layer="322" to-port="0" />
		<edge from-layer="321" from-port="0" to-layer="322" to-port="1" />
		<edge from-layer="322" from-port="2" to-layer="323" to-port="0" />
		<edge from-layer="323" from-port="1" to-layer="325" to-port="0" />
		<edge from-layer="324" from-port="0" to-layer="325" to-port="1" />
		<edge from-layer="325" from-port="2" to-layer="327" to-port="0" />
		<edge from-layer="326" from-port="0" to-layer="327" to-port="1" />
		<edge from-layer="327" from-port="2" to-layer="328" to-port="0" />
		<edge from-layer="327" from-port="2" to-layer="518" to-port="0" />
		<edge from-layer="328" from-port="1" to-layer="342" to-port="0" />
		<edge from-layer="328" from-port="1" to-layer="331" to-port="0" />
		<edge from-layer="329" from-port="0" to-layer="331" to-port="1" />
		<edge from-layer="330" from-port="0" to-layer="331" to-port="2" />
		<edge from-layer="331" from-port="3" to-layer="333" to-port="1" />
		<edge from-layer="332" from-port="0" to-layer="333" to-port="2" />
		<edge from-layer="333" from-port="3" to-layer="334" to-port="0" />
		<edge from-layer="334" from-port="1" to-layer="336" to-port="0" />
		<edge from-layer="335" from-port="0" to-layer="336" to-port="1" />
		<edge from-layer="336" from-port="2" to-layer="338" to-port="0" />
		<edge from-layer="336" from-port="2" to-layer="357" to-port="0" />
		<edge from-layer="337" from-port="0" to-layer="338" to-port="1" />
		<edge from-layer="338" from-port="2" to-layer="349" to-port="0" />
		<edge from-layer="339" from-port="0" to-layer="344" to-port="0" />
		<edge from-layer="340" from-port="0" to-layer="342" to-port="1" />
		<edge from-layer="341" from-port="0" to-layer="342" to-port="2" />
		<edge from-layer="342" from-port="3" to-layer="344" to-port="1" />
		<edge from-layer="343" from-port="0" to-layer="344" to-port="2" />
		<edge from-layer="344" from-port="3" to-layer="345" to-port="0" />
		<edge from-layer="345" from-port="1" to-layer="347" to-port="0" />
		<edge from-layer="346" from-port="0" to-layer="347" to-port="1" />
		<edge from-layer="347" from-port="2" to-layer="353" to-port="0" />
		<edge from-layer="347" from-port="2" to-layer="348" to-port="0" />
		<edge from-layer="348" from-port="1" to-layer="349" to-port="1" />
		<edge from-layer="349" from-port="2" to-layer="351" to-port="0" />
		<edge from-layer="349" from-port="2" to-layer="365" to-port="0" />
		<edge from-layer="350" from-port="0" to-layer="351" to-port="1" />
		<edge from-layer="351" from-port="2" to-layer="368" to-port="0" />
		<edge from-layer="352" from-port="0" to-layer="353" to-port="1" />
		<edge from-layer="353" from-port="2" to-layer="355" to-port="0" />
		<edge from-layer="354" from-port="0" to-layer="355" to-port="1" />
		<edge from-layer="355" from-port="2" to-layer="359" to-port="0" />
		<edge from-layer="356" from-port="0" to-layer="358" to-port="0" />
		<edge from-layer="357" from-port="1" to-layer="358" to-port="1" />
		<edge from-layer="358" from-port="2" to-layer="359" to-port="1" />
		<edge from-layer="359" from-port="2" to-layer="361" to-port="0" />
		<edge from-layer="360" from-port="0" to-layer="361" to-port="1" />
		<edge from-layer="361" from-port="2" to-layer="367" to-port="0" />
		<edge from-layer="361" from-port="2" to-layer="363" to-port="0" />
		<edge from-layer="362" from-port="0" to-layer="363" to-port="1" />
		<edge from-layer="363" from-port="2" to-layer="368" to-port="1" />
		<edge from-layer="364" from-port="0" to-layer="365" to-port="1" />
		<edge from-layer="365" from-port="2" to-layer="368" to-port="2" />
		<edge from-layer="366" from-port="0" to-layer="367" to-port="1" />
		<edge from-layer="367" from-port="2" to-layer="368" to-port="3" />
		<edge from-layer="368" from-port="4" to-layer="370" to-port="0" />
		<edge from-layer="369" from-port="0" to-layer="370" to-port="1" />
		<edge from-layer="370" from-port="2" to-layer="371" to-port="1" />
		<edge from-layer="371" from-port="2" to-layer="373" to-port="0" />
		<edge from-layer="372" from-port="0" to-layer="373" to-port="1" />
		<edge from-layer="373" from-port="2" to-layer="375" to-port="0" />
		<edge from-layer="374" from-port="0" to-layer="375" to-port="1" />
		<edge from-layer="375" from-port="2" to-layer="376" to-port="1" />
		<edge from-layer="376" from-port="2" to-layer="378" to-port="0" />
		<edge from-layer="377" from-port="0" to-layer="378" to-port="1" />
		<edge from-layer="378" from-port="2" to-layer="386" to-port="0" />
		<edge from-layer="378" from-port="2" to-layer="382" to-port="0" />
		<edge from-layer="379" from-port="0" to-layer="382" to-port="1" />
		<edge from-layer="380" from-port="0" to-layer="382" to-port="2" />
		<edge from-layer="381" from-port="0" to-layer="382" to-port="3" />
		<edge from-layer="382" from-port="4" to-layer="387" to-port="0" />
		<edge from-layer="382" from-port="4" to-layer="390" to-port="1" />
		<edge from-layer="383" from-port="0" to-layer="386" to-port="1" />
		<edge from-layer="384" from-port="0" to-layer="386" to-port="2" />
		<edge from-layer="385" from-port="0" to-layer="386" to-port="3" />
		<edge from-layer="386" from-port="4" to-layer="387" to-port="1" />
		<edge from-layer="386" from-port="4" to-layer="390" to-port="0" />
		<edge from-layer="387" from-port="2" to-layer="389" to-port="0" />
		<edge from-layer="388" from-port="0" to-layer="389" to-port="1" />
		<edge from-layer="389" from-port="2" to-layer="436" to-port="0" />
		<edge from-layer="390" from-port="2" to-layer="435" to-port="0" />
		<edge from-layer="390" from-port="2" to-layer="443" to-port="0" />
		<edge from-layer="391" from-port="0" to-layer="392" to-port="1" />
		<edge from-layer="392" from-port="2" to-layer="394" to-port="0" />
		<edge from-layer="393" from-port="0" to-layer="394" to-port="1" />
		<edge from-layer="394" from-port="2" to-layer="395" to-port="0" />
		<edge from-layer="395" from-port="1" to-layer="397" to-port="0" />
		<edge from-layer="396" from-port="0" to-layer="397" to-port="1" />
		<edge from-layer="397" from-port="2" to-layer="399" to-port="0" />
		<edge from-layer="398" from-port="0" to-layer="399" to-port="1" />
		<edge from-layer="399" from-port="2" to-layer="401" to-port="0" />
		<edge from-layer="400" from-port="0" to-layer="401" to-port="1" />
		<edge from-layer="401" from-port="2" to-layer="408" to-port="0" />
		<edge from-layer="402" from-port="0" to-layer="404" to-port="1" />
		<edge from-layer="403" from-port="0" to-layer="404" to-port="2" />
		<edge from-layer="403" from-port="0" to-layer="511" to-port="2" />
		<edge from-layer="403" from-port="0" to-layer="520" to-port="2" />
		<edge from-layer="403" from-port="0" to-layer="421" to-port="2" />
		<edge from-layer="404" from-port="3" to-layer="407" to-port="0" />
		<edge from-layer="405" from-port="0" to-layer="407" to-port="1" />
		<edge from-layer="406" from-port="0" to-layer="407" to-port="2" />
		<edge from-layer="407" from-port="3" to-layer="408" to-port="1" />
		<edge from-layer="408" from-port="2" to-layer="426" to-port="0" />
		<edge from-layer="409" from-port="0" to-layer="410" to-port="1" />
		<edge from-layer="410" from-port="2" to-layer="412" to-port="0" />
		<edge from-layer="411" from-port="0" to-layer="412" to-port="1" />
		<edge from-layer="412" from-port="2" to-layer="413" to-port="0" />
		<edge from-layer="413" from-port="1" to-layer="415" to-port="0" />
		<edge from-layer="414" from-port="0" to-layer="415" to-port="1" />
		<edge from-layer="415" from-port="2" to-layer="417" to-port="0" />
		<edge from-layer="416" from-port="0" to-layer="417" to-port="1" />
		<edge from-layer="417" from-port="2" to-layer="419" to-port="0" />
		<edge from-layer="418" from-port="0" to-layer="419" to-port="1" />
		<edge from-layer="419" from-port="2" to-layer="425" to-port="0" />
		<edge from-layer="420" from-port="0" to-layer="421" to-port="1" />
		<edge from-layer="421" from-port="3" to-layer="424" to-port="0" />
		<edge from-layer="422" from-port="0" to-layer="424" to-port="1" />
		<edge from-layer="423" from-port="0" to-layer="424" to-port="2" />
		<edge from-layer="424" from-port="3" to-layer="425" to-port="1" />
		<edge from-layer="425" from-port="2" to-layer="426" to-port="1" />
		<edge from-layer="426" from-port="2" to-layer="428" to-port="0" />
		<edge from-layer="426" from-port="2" to-layer="496" to-port="0" />
		<edge from-layer="427" from-port="0" to-layer="428" to-port="1" />
		<edge from-layer="428" from-port="2" to-layer="430" to-port="0" />
		<edge from-layer="429" from-port="0" to-layer="430" to-port="1" />
		<edge from-layer="430" from-port="2" to-layer="440" to-port="0" />
		<edge from-layer="430" from-port="2" to-layer="434" to-port="0" />
		<edge from-layer="431" from-port="0" to-layer="434" to-port="1" />
		<edge from-layer="432" from-port="0" to-layer="434" to-port="2" />
		<edge from-layer="433" from-port="0" to-layer="434" to-port="3" />
		<edge from-layer="434" from-port="4" to-layer="435" to-port="1" />
		<edge from-layer="435" from-port="2" to-layer="436" to-port="1" />
		<edge from-layer="436" from-port="2" to-layer="476" to-port="0" />
		<edge from-layer="436" from-port="2" to-layer="446" to-port="0" />
		<edge from-layer="437" from-port="0" to-layer="440" to-port="1" />
		<edge from-layer="438" from-port="0" to-layer="440" to-port="2" />
		<edge from-layer="439" from-port="0" to-layer="440" to-port="3" />
		<edge from-layer="440" from-port="4" to-layer="441" to-port="0" />
		<edge from-layer="441" from-port="1" to-layer="442" to-port="0" />
		<edge from-layer="442" from-port="1" to-layer="443" to-port="1" />
		<edge from-layer="443" from-port="2" to-layer="445" to-port="0" />
		<edge from-layer="444" from-port="0" to-layer="445" to-port="1" />
		<edge from-layer="445" from-port="2" to-layer="446" to-port="1" />
		<edge from-layer="445" from-port="2" to-layer="476" to-port="1" />
		<edge from-layer="446" from-port="2" to-layer="449" to-port="0" />
		<edge from-layer="446" from-port="2" to-layer="466" to-port="0" />
		<edge from-layer="447" from-port="0" to-layer="603" to-port="1" />
		<edge from-layer="447" from-port="0" to-layer="478" to-port="1" />
		<edge from-layer="447" from-port="0" to-layer="468" to-port="1" />
		<edge from-layer="447" from-port="0" to-layer="449" to-port="1" />
		<edge from-layer="448" from-port="0" to-layer="449" to-port="2" />
		<edge from-layer="449" from-port="3" to-layer="459" to-port="0" />
		<edge from-layer="450" from-port="1" to-layer="454" to-port="0" />
		<edge from-layer="451" from-port="0" to-layer="454" to-port="1" />
		<edge from-layer="452" from-port="0" to-layer="454" to-port="2" />
		<edge from-layer="453" from-port="0" to-layer="454" to-port="3" />
		<edge from-layer="454" from-port="4" to-layer="457" to-port="0" />
		<edge from-layer="454" from-port="4" to-layer="468" to-port="0" />
		<edge from-layer="455" from-port="0" to-layer="487" to-port="1" />
		<edge from-layer="455" from-port="0" to-layer="611" to-port="1" />
		<edge from-layer="455" from-port="0" to-layer="466" to-port="1" />
		<edge from-layer="455" from-port="0" to-layer="457" to-port="1" />
		<edge from-layer="456" from-port="0" to-layer="457" to-port="2" />
		<edge from-layer="457" from-port="3" to-layer="458" to-port="0" />
		<edge from-layer="457" from-port="3" to-layer="461" to-port="0" />
		<edge from-layer="457" from-port="3" to-layer="482" to-port="0" />
		<edge from-layer="457" from-port="3" to-layer="479" to-port="0" />
		<edge from-layer="458" from-port="1" to-layer="459" to-port="1" />
		<edge from-layer="459" from-port="2" to-layer="460" to-port="0" />
		<edge from-layer="460" from-port="1" to-layer="462" to-port="0" />
		<edge from-layer="461" from-port="1" to-layer="462" to-port="1" />
		<edge from-layer="462" from-port="2" to-layer="464" to-port="0" />
		<edge from-layer="463" from-port="0" to-layer="464" to-port="1" />
		<edge from-layer="464" from-port="2" to-layer="495" to-port="0" />
		<edge from-layer="465" from-port="0" to-layer="466" to-port="2" />
		<edge from-layer="466" from-port="3" to-layer="470" to-port="0" />
		<edge from-layer="467" from-port="0" to-layer="468" to-port="2" />
		<edge from-layer="468" from-port="3" to-layer="491" to-port="0" />
		<edge from-layer="468" from-port="3" to-layer="469" to-port="0" />
		<edge from-layer="468" from-port="3" to-layer="488" to-port="0" />
		<edge from-layer="468" from-port="3" to-layer="472" to-port="0" />
		<edge from-layer="469" from-port="1" to-layer="470" to-port="1" />
		<edge from-layer="470" from-port="2" to-layer="471" to-port="0" />
		<edge from-layer="471" from-port="1" to-layer="473" to-port="0" />
		<edge from-layer="472" from-port="1" to-layer="473" to-port="1" />
		<edge from-layer="473" from-port="2" to-layer="475" to-port="0" />
		<edge from-layer="474" from-port="0" to-layer="475" to-port="1" />
		<edge from-layer="475" from-port="2" to-layer="495" to-port="1" />
		<edge from-layer="476" from-port="2" to-layer="487" to-port="0" />
		<edge from-layer="476" from-port="2" to-layer="478" to-port="0" />
		<edge from-layer="477" from-port="0" to-layer="478" to-port="2" />
		<edge from-layer="478" from-port="3" to-layer="480" to-port="0" />
		<edge from-layer="479" from-port="1" to-layer="480" to-port="1" />
		<edge from-layer="480" from-port="2" to-layer="481" to-port="0" />
		<edge from-layer="481" from-port="1" to-layer="483" to-port="0" />
		<edge from-layer="482" from-port="1" to-layer="483" to-port="1" />
		<edge from-layer="483" from-port="2" to-layer="485" to-port="0" />
		<edge from-layer="484" from-port="0" to-layer="485" to-port="1" />
		<edge from-layer="485" from-port="2" to-layer="495" to-port="2" />
		<edge from-layer="486" from-port="0" to-layer="487" to-port="2" />
		<edge from-layer="487" from-port="3" to-layer="489" to-port="0" />
		<edge from-layer="488" from-port="1" to-layer="489" to-port="1" />
		<edge from-layer="489" from-port="2" to-layer="490" to-port="0" />
		<edge from-layer="490" from-port="1" to-layer="492" to-port="0" />
		<edge from-layer="491" from-port="1" to-layer="492" to-port="1" />
		<edge from-layer="492" from-port="2" to-layer="494" to-port="0" />
		<edge from-layer="493" from-port="0" to-layer="494" to-port="1" />
		<edge from-layer="494" from-port="2" to-layer="495" to-port="3" />
		<edge from-layer="495" from-port="4" to-layer="497" to-port="0" />
		<edge from-layer="496" from-port="1" to-layer="497" to-port="1" />
		<edge from-layer="497" from-port="2" to-layer="507" to-port="0" />
		<edge from-layer="497" from-port="2" to-layer="498" to-port="0" />
		<edge from-layer="498" from-port="1" to-layer="557" to-port="0" />
		<edge from-layer="498" from-port="1" to-layer="502" to-port="0" />
		<edge from-layer="498" from-port="1" to-layer="565" to-port="0" />
		<edge from-layer="499" from-port="0" to-layer="502" to-port="1" />
		<edge from-layer="500" from-port="0" to-layer="502" to-port="2" />
		<edge from-layer="501" from-port="0" to-layer="502" to-port="3" />
		<edge from-layer="502" from-port="4" to-layer="504" to-port="0" />
		<edge from-layer="503" from-port="0" to-layer="504" to-port="1" />
		<edge from-layer="504" from-port="2" to-layer="506" to-port="0" />
		<edge from-layer="505" from-port="0" to-layer="506" to-port="1" />
		<edge from-layer="506" from-port="2" to-layer="507" to-port="1" />
		<edge from-layer="507" from-port="2" to-layer="561" to-port="0" />
		<edge from-layer="508" from-port="0" to-layer="509" to-port="1" />
		<edge from-layer="509" from-port="2" to-layer="515" to-port="0" />
		<edge from-layer="510" from-port="0" to-layer="511" to-port="1" />
		<edge from-layer="511" from-port="3" to-layer="514" to-port="0" />
		<edge from-layer="512" from-port="0" to-layer="514" to-port="1" />
		<edge from-layer="513" from-port="0" to-layer="514" to-port="2" />
		<edge from-layer="514" from-port="3" to-layer="515" to-port="1" />
		<edge from-layer="515" from-port="2" to-layer="516" to-port="0" />
		<edge from-layer="516" from-port="1" to-layer="526" to-port="0" />
		<edge from-layer="517" from-port="0" to-layer="518" to-port="1" />
		<edge from-layer="518" from-port="2" to-layer="524" to-port="0" />
		<edge from-layer="519" from-port="0" to-layer="520" to-port="1" />
		<edge from-layer="520" from-port="3" to-layer="523" to-port="0" />
		<edge from-layer="521" from-port="0" to-layer="523" to-port="1" />
		<edge from-layer="522" from-port="0" to-layer="523" to-port="2" />
		<edge from-layer="523" from-port="3" to-layer="524" to-port="1" />
		<edge from-layer="524" from-port="2" to-layer="525" to-port="0" />
		<edge from-layer="525" from-port="1" to-layer="526" to-port="1" />
		<edge from-layer="526" from-port="2" to-layer="530" to-port="0" />
		<edge from-layer="527" from-port="0" to-layer="530" to-port="1" />
		<edge from-layer="528" from-port="0" to-layer="530" to-port="2" />
		<edge from-layer="529" from-port="0" to-layer="530" to-port="3" />
		<edge from-layer="530" from-port="4" to-layer="579" to-port="0" />
		<edge from-layer="530" from-port="4" to-layer="532" to-port="0" />
		<edge from-layer="530" from-port="4" to-layer="547" to-port="0" />
		<edge from-layer="531" from-port="0" to-layer="532" to-port="1" />
		<edge from-layer="532" from-port="2" to-layer="534" to-port="0" />
		<edge from-layer="532" from-port="2" to-layer="545" to-port="0" />
		<edge from-layer="533" from-port="0" to-layer="538" to-port="0" />
		<edge from-layer="534" from-port="1" to-layer="537" to-port="0" />
		<edge from-layer="535" from-port="0" to-layer="537" to-port="1" />
		<edge from-layer="536" from-port="0" to-layer="537" to-port="2" />
		<edge from-layer="537" from-port="3" to-layer="540" to-port="2" />
		<edge from-layer="537" from-port="3" to-layer="538" to-port="1" />
		<edge from-layer="538" from-port="2" to-layer="540" to-port="0" />
		<edge from-layer="539" from-port="0" to-layer="540" to-port="1" />
		<edge from-layer="540" from-port="3" to-layer="542" to-port="0" />
		<edge from-layer="541" from-port="0" to-layer="542" to-port="1" />
		<edge from-layer="542" from-port="2" to-layer="544" to-port="0" />
		<edge from-layer="543" from-port="0" to-layer="544" to-port="1" />
		<edge from-layer="544" from-port="2" to-layer="545" to-port="1" />
		<edge from-layer="545" from-port="3" to-layer="559" to-port="0" />
		<edge from-layer="545" from-port="3" to-layer="584" to-port="0" />
		<edge from-layer="546" from-port="0" to-layer="552" to-port="0" />
		<edge from-layer="547" from-port="1" to-layer="574" to-port="0" />
		<edge from-layer="547" from-port="1" to-layer="582" to-port="0" />
		<edge from-layer="547" from-port="1" to-layer="550" to-port="0" />
		<edge from-layer="547" from-port="1" to-layer="590" to-port="0" />
		<edge from-layer="547" from-port="1" to-layer="693" to-port="0" />
		<edge from-layer="547" from-port="1" to-layer="617" to-port="0" />
		<edge from-layer="548" from-port="0" to-layer="550" to-port="1" />
		<edge from-layer="549" from-port="0" to-layer="693" to-port="2" />
		<edge from-layer="549" from-port="0" to-layer="617" to-port="2" />
		<edge from-layer="549" from-port="0" to-layer="550" to-port="2" />
		<edge from-layer="550" from-port="3" to-layer="552" to-port="1" />
		<edge from-layer="550" from-port="3" to-layer="606" to-port="1" />
		<edge from-layer="550" from-port="3" to-layer="744" to-port="1" />
		<edge from-layer="551" from-port="0" to-layer="552" to-port="2" />
		<edge from-layer="552" from-port="3" to-layer="554" to-port="0" />
		<edge from-layer="553" from-port="0" to-layer="554" to-port="1" />
		<edge from-layer="554" from-port="2" to-layer="583" to-port="0" />
		<edge from-layer="554" from-port="2" to-layer="558" to-port="0" />
		<edge from-layer="555" from-port="0" to-layer="557" to-port="1" />
		<edge from-layer="556" from-port="0" to-layer="557" to-port="2" />
		<edge from-layer="557" from-port="3" to-layer="558" to-port="1" />
		<edge from-layer="558" from-port="2" to-layer="559" to-port="1" />
		<edge from-layer="559" from-port="2" to-layer="561" to-port="1" />
		<edge from-layer="559" from-port="2" to-layer="568" to-port="0" />
		<edge from-layer="560" from-port="0" to-layer="561" to-port="2" />
		<edge from-layer="561" from-port="3" to-layer="567" to-port="0" />
		<edge from-layer="562" from-port="0" to-layer="566" to-port="0" />
		<edge from-layer="563" from-port="0" to-layer="565" to-port="1" />
		<edge from-layer="564" from-port="0" to-layer="565" to-port="2" />
		<edge from-layer="565" from-port="3" to-layer="569" to-port="1" />
		<edge from-layer="565" from-port="3" to-layer="566" to-port="1" />
		<edge from-layer="566" from-port="2" to-layer="567" to-port="1" />
		<edge from-layer="567" from-port="2" to-layer="570" to-port="0" />
		<edge from-layer="568" from-port="1" to-layer="569" to-port="0" />
		<edge from-layer="569" from-port="2" to-layer="570" to-port="1" />
		<edge from-layer="570" from-port="2" to-layer="635" to-port="0" />
		<edge from-layer="570" from-port="2" to-layer="626" to-port="0" />
		<edge from-layer="570" from-port="2" to-layer="601" to-port="0" />
		<edge from-layer="571" from-port="0" to-layer="574" to-port="1" />
		<edge from-layer="572" from-port="0" to-layer="574" to-port="2" />
		<edge from-layer="573" from-port="0" to-layer="574" to-port="3" />
		<edge from-layer="574" from-port="4" to-layer="576" to-port="0" />
		<edge from-layer="575" from-port="0" to-layer="576" to-port="1" />
		<edge from-layer="576" from-port="2" to-layer="578" to-port="0" />
		<edge from-layer="577" from-port="0" to-layer="578" to-port="1" />
		<edge from-layer="578" from-port="2" to-layer="579" to-port="1" />
		<edge from-layer="579" from-port="2" to-layer="586" to-port="0" />
		<edge from-layer="580" from-port="0" to-layer="582" to-port="1" />
		<edge from-layer="581" from-port="0" to-layer="582" to-port="2" />
		<edge from-layer="582" from-port="3" to-layer="583" to-port="1" />
		<edge from-layer="583" from-port="2" to-layer="584" to-port="1" />
		<edge from-layer="584" from-port="2" to-layer="593" to-port="0" />
		<edge from-layer="584" from-port="2" to-layer="586" to-port="1" />
		<edge from-layer="585" from-port="0" to-layer="586" to-port="2" />
		<edge from-layer="586" from-port="3" to-layer="592" to-port="0" />
		<edge from-layer="587" from-port="0" to-layer="591" to-port="0" />
		<edge from-layer="588" from-port="0" to-layer="590" to-port="1" />
		<edge from-layer="589" from-port="0" to-layer="590" to-port="2" />
		<edge from-layer="590" from-port="3" to-layer="594" to-port="1" />
		<edge from-layer="590" from-port="3" to-layer="591" to-port="1" />
		<edge from-layer="591" from-port="2" to-layer="592" to-port="1" />
		<edge from-layer="592" from-port="2" to-layer="595" to-port="0" />
		<edge from-layer="593" from-port="1" to-layer="594" to-port="0" />
		<edge from-layer="594" from-port="2" to-layer="595" to-port="1" />
		<edge from-layer="595" from-port="2" to-layer="656" to-port="0" />
		<edge from-layer="595" from-port="2" to-layer="597" to-port="0" />
		<edge from-layer="596" from-port="0" to-layer="597" to-port="1" />
		<edge from-layer="597" from-port="2" to-layer="667" to-port="0" />
		<edge from-layer="597" from-port="2" to-layer="601" to-port="1" />
		<edge from-layer="598" from-port="0" to-layer="601" to-port="2" />
		<edge from-layer="599" from-port="0" to-layer="601" to-port="3" />
		<edge from-layer="600" from-port="0" to-layer="601" to-port="4" />
		<edge from-layer="601" from-port="5" to-layer="603" to-port="0" />
		<edge from-layer="601" from-port="5" to-layer="611" to-port="0" />
		<edge from-layer="601" from-port="5" to-layer="638" to-port="0" />
		<edge from-layer="602" from-port="0" to-layer="603" to-port="2" />
		<edge from-layer="603" from-port="3" to-layer="677" to-port="0" />
		<edge from-layer="603" from-port="3" to-layer="642" to-port="0" />
		<edge from-layer="603" from-port="3" to-layer="609" to-port="0" />
		<edge from-layer="604" from-port="0" to-layer="606" to-port="0" />
		<edge from-layer="605" from-port="0" to-layer="606" to-port="2" />
		<edge from-layer="606" from-port="3" to-layer="608" to-port="0" />
		<edge from-layer="607" from-port="0" to-layer="608" to-port="1" />
		<edge from-layer="608" from-port="2" to-layer="609" to-port="1" />
		<edge from-layer="609" from-port="2" to-layer="622" to-port="0" />
		<edge from-layer="609" from-port="2" to-layer="625" to-port="0" />
		<edge from-layer="610" from-port="0" to-layer="611" to-port="2" />
		<edge from-layer="611" from-port="3" to-layer="613" to-port="0" />
		<edge from-layer="611" from-port="3" to-layer="671" to-port="0" />
		<edge from-layer="612" from-port="0" to-layer="613" to-port="1" />
		<edge from-layer="613" from-port="2" to-layer="615" to-port="0" />
		<edge from-layer="614" from-port="0" to-layer="615" to-port="1" />
		<edge from-layer="615" from-port="2" to-layer="620" to-port="0" />
		<edge from-layer="616" from-port="0" to-layer="617" to-port="1" />
		<edge from-layer="617" from-port="3" to-layer="619" to-port="0" />
		<edge from-layer="618" from-port="0" to-layer="619" to-port="1" />
		<edge from-layer="619" from-port="2" to-layer="620" to-port="1" />
		<edge from-layer="620" from-port="2" to-layer="622" to-port="1" />
		<edge from-layer="621" from-port="0" to-layer="622" to-port="2" />
		<edge from-layer="622" from-port="3" to-layer="707" to-port="0" />
		<edge from-layer="623" from-port="0" to-layer="706" to-port="0" />
		<edge from-layer="624" from-port="0" to-layer="625" to-port="1" />
		<edge from-layer="625" from-port="2" to-layer="699" to-port="0" />
		<edge from-layer="626" from-port="1" to-layer="641" to-port="0" />
		<edge from-layer="626" from-port="1" to-layer="630" to-port="0" />
		<edge from-layer="626" from-port="1" to-layer="649" to-port="0" />
		<edge from-layer="627" from-port="0" to-layer="630" to-port="1" />
		<edge from-layer="628" from-port="0" to-layer="630" to-port="2" />
		<edge from-layer="629" from-port="0" to-layer="630" to-port="3" />
		<edge from-layer="630" from-port="4" to-layer="632" to-port="0" />
		<edge from-layer="631" from-port="0" to-layer="632" to-port="1" />
		<edge from-layer="632" from-port="2" to-layer="634" to-port="0" />
		<edge from-layer="633" from-port="0" to-layer="634" to-port="1" />
		<edge from-layer="634" from-port="2" to-layer="635" to-port="1" />
		<edge from-layer="635" from-port="2" to-layer="645" to-port="0" />
		<edge from-layer="636" from-port="0" to-layer="638" to-port="1" />
		<edge from-layer="637" from-port="0" to-layer="638" to-port="2" />
		<edge from-layer="638" from-port="3" to-layer="672" to-port="0" />
		<edge from-layer="638" from-port="3" to-layer="643" to-port="0" />
		<edge from-layer="639" from-port="0" to-layer="641" to-port="1" />
		<edge from-layer="640" from-port="0" to-layer="641" to-port="2" />
		<edge from-layer="641" from-port="3" to-layer="642" to-port="1" />
		<edge from-layer="642" from-port="2" to-layer="643" to-port="1" />
		<edge from-layer="643" from-port="2" to-layer="652" to-port="0" />
		<edge from-layer="643" from-port="2" to-layer="645" to-port="1" />
		<edge from-layer="644" from-port="0" to-layer="645" to-port="2" />
		<edge from-layer="645" from-port="3" to-layer="651" to-port="0" />
		<edge from-layer="646" from-port="0" to-layer="650" to-port="0" />
		<edge from-layer="647" from-port="0" to-layer="649" to-port="1" />
		<edge from-layer="648" from-port="0" to-layer="649" to-port="2" />
		<edge from-layer="649" from-port="3" to-layer="650" to-port="1" />
		<edge from-layer="649" from-port="3" to-layer="653" to-port="1" />
		<edge from-layer="650" from-port="2" to-layer="651" to-port="1" />
		<edge from-layer="651" from-port="2" to-layer="654" to-port="0" />
		<edge from-layer="652" from-port="1" to-layer="653" to-port="0" />
		<edge from-layer="653" from-port="2" to-layer="654" to-port="1" />
		<edge from-layer="654" from-port="2" to-layer="687" to-port="0" />
		<edge from-layer="655" from-port="0" to-layer="656" to-port="1" />
		<edge from-layer="656" from-port="2" to-layer="666" to-port="0" />
		<edge from-layer="656" from-port="2" to-layer="657" to-port="0" />
		<edge from-layer="657" from-port="1" to-layer="661" to-port="0" />
		<edge from-layer="658" from-port="0" to-layer="661" to-port="1" />
		<edge from-layer="659" from-port="0" to-layer="661" to-port="2" />
		<edge from-layer="660" from-port="0" to-layer="661" to-port="3" />
		<edge from-layer="661" from-port="4" to-layer="663" to-port="0" />
		<edge from-layer="662" from-port="0" to-layer="663" to-port="1" />
		<edge from-layer="663" from-port="2" to-layer="665" to-port="0" />
		<edge from-layer="664" from-port="0" to-layer="665" to-port="1" />
		<edge from-layer="665" from-port="2" to-layer="666" to-port="1" />
		<edge from-layer="666" from-port="2" to-layer="680" to-port="0" />
		<edge from-layer="667" from-port="1" to-layer="675" to-port="0" />
		<edge from-layer="667" from-port="1" to-layer="670" to-port="0" />
		<edge from-layer="668" from-port="0" to-layer="670" to-port="1" />
		<edge from-layer="669" from-port="0" to-layer="670" to-port="2" />
		<edge from-layer="670" from-port="3" to-layer="676" to-port="0" />
		<edge from-layer="670" from-port="3" to-layer="671" to-port="1" />
		<edge from-layer="671" from-port="2" to-layer="672" to-port="1" />
		<edge from-layer="672" from-port="2" to-layer="678" to-port="0" />
		<edge from-layer="673" from-port="0" to-layer="675" to-port="1" />
		<edge from-layer="674" from-port="0" to-layer="675" to-port="2" />
		<edge from-layer="675" from-port="3" to-layer="676" to-port="1" />
		<edge from-layer="676" from-port="2" to-layer="677" to-port="1" />
		<edge from-layer="677" from-port="2" to-layer="678" to-port="1" />
		<edge from-layer="678" from-port="2" to-layer="680" to-port="1" />
		<edge from-layer="678" from-port="2" to-layer="683" to-port="0" />
		<edge from-layer="679" from-port="0" to-layer="680" to-port="2" />
		<edge from-layer="680" from-port="3" to-layer="682" to-port="0" />
		<edge from-layer="681" from-port="0" to-layer="682" to-port="1" />
		<edge from-layer="682" from-port="2" to-layer="684" to-port="0" />
		<edge from-layer="683" from-port="1" to-layer="684" to-port="1" />
		<edge from-layer="684" from-port="2" to-layer="686" to-port="0" />
		<edge from-layer="685" from-port="0" to-layer="686" to-port="1" />
		<edge from-layer="686" from-port="2" to-layer="687" to-port="1" />
		<edge from-layer="687" from-port="2" to-layer="689" to-port="0" />
		<edge from-layer="688" from-port="0" to-layer="689" to-port="1" />
		<edge from-layer="689" from-port="2" to-layer="691" to-port="0" />
		<edge from-layer="690" from-port="0" to-layer="691" to-port="1" />
		<edge from-layer="691" from-port="2" to-layer="697" to-port="0" />
		<edge from-layer="692" from-port="0" to-layer="693" to-port="1" />
		<edge from-layer="693" from-port="3" to-layer="696" to-port="0" />
		<edge from-layer="694" from-port="0" to-layer="696" to-port="1" />
		<edge from-layer="695" from-port="0" to-layer="696" to-port="2" />
		<edge from-layer="696" from-port="3" to-layer="697" to-port="1" />
		<edge from-layer="697" from-port="2" to-layer="699" to-port="1" />
		<edge from-layer="698" from-port="0" to-layer="699" to-port="2" />
		<edge from-layer="699" from-port="3" to-layer="725" to-port="0" />
		<edge from-layer="699" from-port="3" to-layer="700" to-port="0" />
		<edge from-layer="700" from-port="1" to-layer="703" to-port="0" />
		<edge from-layer="700" from-port="1" to-layer="720" to-port="0" />
		<edge from-layer="701" from-port="0" to-layer="703" to-port="1" />
		<edge from-layer="702" from-port="0" to-layer="703" to-port="2" />
		<edge from-layer="702" from-port="0" to-layer="720" to-port="2" />
		<edge from-layer="703" from-port="3" to-layer="705" to-port="0" />
		<edge from-layer="704" from-port="0" to-layer="705" to-port="1" />
		<edge from-layer="705" from-port="2" to-layer="706" to-port="1" />
		<edge from-layer="706" from-port="2" to-layer="707" to-port="1" />
		<edge from-layer="707" from-port="2" to-layer="708" to-port="0" />
		<edge from-layer="707" from-port="2" to-layer="717" to-port="0" />
		<edge from-layer="708" from-port="1" to-layer="749" to-port="0" />
		<edge from-layer="708" from-port="1" to-layer="712" to-port="0" />
		<edge from-layer="709" from-port="0" to-layer="712" to-port="1" />
		<edge from-layer="710" from-port="0" to-layer="712" to-port="2" />
		<edge from-layer="711" from-port="0" to-layer="712" to-port="3" />
		<edge from-layer="712" from-port="4" to-layer="714" to-port="0" />
		<edge from-layer="713" from-port="0" to-layer="714" to-port="1" />
		<edge from-layer="714" from-port="2" to-layer="716" to-port="0" />
		<edge from-layer="715" from-port="0" to-layer="716" to-port="1" />
		<edge from-layer="716" from-port="2" to-layer="717" to-port="1" />
		<edge from-layer="717" from-port="2" to-layer="753" to-port="0" />
		<edge from-layer="718" from-port="0" to-layer="724" to-port="0" />
		<edge from-layer="719" from-port="0" to-layer="720" to-port="1" />
		<edge from-layer="720" from-port="3" to-layer="723" to-port="0" />
		<edge from-layer="721" from-port="0" to-layer="723" to-port="1" />
		<edge from-layer="722" from-port="0" to-layer="723" to-port="2" />
		<edge from-layer="723" from-port="3" to-layer="724" to-port="1" />
		<edge from-layer="724" from-port="2" to-layer="725" to-port="1" />
		<edge from-layer="725" from-port="2" to-layer="768" to-port="0" />
		<edge from-layer="725" from-port="2" to-layer="759" to-port="0" />
		<edge from-layer="725" from-port="2" to-layer="728" to-port="0" />
		<edge from-layer="726" from-port="0" to-layer="728" to-port="1" />
		<edge from-layer="727" from-port="0" to-layer="728" to-port="2" />
		<edge from-layer="728" from-port="3" to-layer="730" to-port="0" />
		<edge from-layer="728" from-port="3" to-layer="741" to-port="0" />
		<edge from-layer="729" from-port="0" to-layer="734" to-port="0" />
		<edge from-layer="730" from-port="1" to-layer="733" to-port="0" />
		<edge from-layer="731" from-port="0" to-layer="733" to-port="1" />
		<edge from-layer="732" from-port="0" to-layer="733" to-port="2" />
		<edge from-layer="733" from-port="3" to-layer="736" to-port="2" />
		<edge from-layer="733" from-port="3" to-layer="734" to-port="1" />
		<edge from-layer="734" from-port="2" to-layer="736" to-port="0" />
		<edge from-layer="735" from-port="0" to-layer="736" to-port="1" />
		<edge from-layer="736" from-port="3" to-layer="738" to-port="0" />
		<edge from-layer="737" from-port="0" to-layer="738" to-port="1" />
		<edge from-layer="738" from-port="2" to-layer="740" to-port="0" />
		<edge from-layer="739" from-port="0" to-layer="740" to-port="1" />
		<edge from-layer="740" from-port="2" to-layer="741" to-port="1" />
		<edge from-layer="741" from-port="3" to-layer="773" to-port="0" />
		<edge from-layer="741" from-port="3" to-layer="751" to-port="0" />
		<edge from-layer="742" from-port="0" to-layer="744" to-port="0" />
		<edge from-layer="743" from-port="0" to-layer="744" to-port="2" />
		<edge from-layer="744" from-port="3" to-layer="746" to-port="0" />
		<edge from-layer="745" from-port="0" to-layer="746" to-port="1" />
		<edge from-layer="746" from-port="2" to-layer="750" to-port="0" />
		<edge from-layer="746" from-port="2" to-layer="772" to-port="0" />
		<edge from-layer="747" from-port="0" to-layer="749" to-port="1" />
		<edge from-layer="748" from-port="0" to-layer="749" to-port="2" />
		<edge from-layer="749" from-port="3" to-layer="750" to-port="1" />
		<edge from-layer="750" from-port="2" to-layer="751" to-port="1" />
		<edge from-layer="751" from-port="2" to-layer="756" to-port="0" />
		<edge from-layer="751" from-port="2" to-layer="753" to-port="1" />
		<edge from-layer="752" from-port="0" to-layer="753" to-port="2" />
		<edge from-layer="753" from-port="3" to-layer="755" to-port="0" />
		<edge from-layer="754" from-port="0" to-layer="755" to-port="1" />
		<edge from-layer="755" from-port="2" to-layer="757" to-port="0" />
		<edge from-layer="756" from-port="1" to-layer="757" to-port="1" />
		<edge from-layer="757" from-port="2" to-layer="758" to-port="0" />
		<edge from-layer="759" from-port="1" to-layer="779" to-port="0" />
		<edge from-layer="759" from-port="1" to-layer="763" to-port="0" />
		<edge from-layer="759" from-port="1" to-layer="771" to-port="0" />
		<edge from-layer="760" from-port="0" to-layer="763" to-port="1" />
		<edge from-layer="761" from-port="0" to-layer="763" to-port="2" />
		<edge from-layer="762" from-port="0" to-layer="763" to-port="3" />
		<edge from-layer="763" from-port="4" to-layer="765" to-port="0" />
		<edge from-layer="764" from-port="0" to-layer="765" to-port="1" />
		<edge from-layer="765" from-port="2" to-layer="767" to-port="0" />
		<edge from-layer="766" from-port="0" to-layer="767" to-port="1" />
		<edge from-layer="767" from-port="2" to-layer="768" to-port="1" />
		<edge from-layer="768" from-port="2" to-layer="775" to-port="0" />
		<edge from-layer="769" from-port="0" to-layer="771" to-port="1" />
		<edge from-layer="770" from-port="0" to-layer="771" to-port="2" />
		<edge from-layer="771" from-port="3" to-layer="772" to-port="1" />
		<edge from-layer="772" from-port="2" to-layer="773" to-port="1" />
		<edge from-layer="773" from-port="2" to-layer="775" to-port="1" />
		<edge from-layer="773" from-port="2" to-layer="782" to-port="0" />
		<edge from-layer="774" from-port="0" to-layer="775" to-port="2" />
		<edge from-layer="775" from-port="3" to-layer="781" to-port="0" />
		<edge from-layer="776" from-port="0" to-layer="780" to-port="0" />
		<edge from-layer="777" from-port="0" to-layer="779" to-port="1" />
		<edge from-layer="778" from-port="0" to-layer="779" to-port="2" />
		<edge from-layer="779" from-port="3" to-layer="780" to-port="1" />
		<edge from-layer="779" from-port="3" to-layer="783" to-port="1" />
		<edge from-layer="780" from-port="2" to-layer="781" to-port="1" />
		<edge from-layer="781" from-port="2" to-layer="784" to-port="0" />
		<edge from-layer="782" from-port="1" to-layer="783" to-port="0" />
		<edge from-layer="783" from-port="2" to-layer="784" to-port="1" />
		<edge from-layer="784" from-port="2" to-layer="785" to-port="0" />
	</edges>
	<rt_info>
		<MO_version value="2023.0.0-10926-b4452d56304-releases/2023/0" />
		<Runtime_version value="2023.0.0-10926-b4452d56304-releases/2023/0" />
		<conversion_parameters>
			<input value="image" />
			<input_model value="DIR/model_ready.onnx" />
			<input_shape value="[-1, 3, 864, 864]" />
			<is_python_api_used value="False" />
			<mean_values value="[0, 0, 0]" />
			<model_name value="model" />
			<output value="boxes,labels" />
			<output_dir value="DIR" />
			<scale_values value="[255, 255, 255]" />
		</conversion_parameters>
		<legacy_frontend value="False" />
		<model_info>
			<confidence_threshold value="0.7000000000000001" />
			<iou_threshold value="0.5" />
			<label_ids value="0 1 2" />
			<labels value="Human Car Plane" />
			<model_type value="ssd" />
			<task_type value="detection" />
		</model_info>
	</rt_info>
</net>
